Neural Network Tools for STM32AI v1.6.0 (STM.ai v7.2.0-RC5)
Created date          : 2022-10-16 01:15:12
Parameters            : generate --name network -m C:/Users/10633/Desktop/Mywork/Mico-eye/2.model/mobv2_128x128x3_adam02_respin01.best_val.035.h5.uint8.tflite --type tflite --compression none --verbosity 1 --workspace C:\Users\10633\AppData\Local\Temp\mxAI_workspace1250316998189006056155718624816285 --output C:\Users\10633\.stm32cubemx\network_output --allocate-inputs --allocate-outputs --split-weights

Exec/report summary (generate)
------------------------------------------------------------------------------------------------------------------------
model file            : C:\Users\10633\Desktop\Mywork\Mico-eye\2.model\mobv2_128x128x3_adam02_respin01.best_val.035.h5.uint8.tflite
type                  : tflite
c_name                : network
compression           : none
allocator strategy    : ['allocate-inputs', 'allocate-outputs', 'split-weights']
workspace dir         : C:\Users\10633\AppData\Local\Temp\mxAI_workspace1250316998189006056155718624816285
output dir            : C:\Users\10633\.stm32cubemx\network_output
model_name            : mobv2_128x128x3_adam02_respin01_best_val_035_h5_uint8
model_hash            : 465e8b22dc4453af931031f0637739ff
input 1/1             : 'input_1'
                        49152 items, 48.00 KiB, ai_u8, s=0.00784314, zp=127, (1,128,128,3), domain:activations/**default**
output 1/1            : 'nl_70_0_conversion'
                        2 items, 2 B, ai_u8, s=0.00390625, zp=0, (1,1,1,2), domain:activations/**default**
params #              : 391,650 items (403.10 KiB)
macc                  : 19,095,976
weights (ro)          : 412,776 B (403.10 KiB) (106 segments) / -1,153,824(-73.7%) vs float model
activations (rw)      : 229,888 B (224.50 KiB) (1 segment) *
ram (total)           : 229,888 B (224.50 KiB) = 229,888 + 0 + 0

(*) input/output buffers can be used from the activations buffer

Model name - mobv2_128x128x3_adam02_respin01_best_val_035_h5_uint8 ['input_1'] ['nl_70_0_conversion']
------------------------------------------------------------------------------------------------------------------------------------------------------------------------------------------
id   layer (type,original)                        oshape                  param/size        macc        connected to         |   c_size   c_macc              c_type                     
------------------------------------------------------------------------------------------------------------------------------------------------------------------------------------------
0    input_1 (Input, )                            [b:1,h:128,w:128,c:3]                                                      |            +98,304(+100.0%)    conv_oi8[0]                
     conversion_0 (Conversion, QUANTIZE)          [b:1,h:128,w:128,c:3]                     98,304      input_1              |            -98,304(-100.0%)   
------------------------------------------------------------------------------------------------------------------------------------------------------------------------------------------
1    pad_1 (Pad, PAD)                             [b:1,h:129,w:129,c:3]                                 conversion_0         |                               
------------------------------------------------------------------------------------------------------------------------------------------------------------------------------------------
2    conv2d_2 (Conv2D, CONV_2D)                   [b:1,h:64,w:64,c:16]    448/496           1,769,488   pad_1                |                                conv2d_oi8[1]              
     nl_2_nl (Nonlinearity, CONV_2D)              [b:1,h:64,w:64,c:16]                      65,536      conv2d_2             |            -65,536(-100.0%)   
------------------------------------------------------------------------------------------------------------------------------------------------------------------------------------------
3    conv2d_3 (Conv2D, DEPTHWISE_CONV_2D)         [b:1,h:64,w:64,c:16]    160/208           589,840     nl_2_nl              |                                pad_oi8/conv2d_oi8[2, 3]   
     nl_3_nl (Nonlinearity, DEPTHWISE_CONV_2D)    [b:1,h:64,w:64,c:16]                      65,536      conv2d_3             |            -65,536(-100.0%)   
------------------------------------------------------------------------------------------------------------------------------------------------------------------------------------------
4    conv2d_4 (Conv2D, CONV_2D)                   [b:1,h:64,w:64,c:8]     136/160           524,296     nl_3_nl              |                                conv2d_oi8[4]              
------------------------------------------------------------------------------------------------------------------------------------------------------------------------------------------
5    conv2d_5 (Conv2D, CONV_2D)                   [b:1,h:64,w:64,c:48]    432/576           1,572,912   conv2d_4             |                                conv2d_oi8[5]              
     nl_5_nl (Nonlinearity, CONV_2D)              [b:1,h:64,w:64,c:48]                      196,608     conv2d_5             |            -196,608(-100.0%)  
------------------------------------------------------------------------------------------------------------------------------------------------------------------------------------------
6    pad_6 (Pad, PAD)                             [b:1,h:65,w:65,c:48]                                  nl_5_nl              |                                pad_oi8[6]                 
------------------------------------------------------------------------------------------------------------------------------------------------------------------------------------------
7    conv2d_7 (Conv2D, DEPTHWISE_CONV_2D)         [b:1,h:32,w:32,c:48]    480/624           442,416     pad_6                |                                conv2d_oi8[7]              
     nl_7_nl (Nonlinearity, DEPTHWISE_CONV_2D)    [b:1,h:32,w:32,c:48]                      49,152      conv2d_7             |            -49,152(-100.0%)   
------------------------------------------------------------------------------------------------------------------------------------------------------------------------------------------
8    conv2d_8 (Conv2D, CONV_2D)                   [b:1,h:32,w:32,c:8]     392/416           393,224     nl_7_nl              |                                conv2d_oi8[8]              
------------------------------------------------------------------------------------------------------------------------------------------------------------------------------------------
9    conv2d_9 (Conv2D, CONV_2D)                   [b:1,h:32,w:32,c:48]    432/576           393,264     conv2d_8             |                                conv2d_oi8[9]              
     nl_9_nl (Nonlinearity, CONV_2D)              [b:1,h:32,w:32,c:48]                      49,152      conv2d_9             |            -49,152(-100.0%)   
------------------------------------------------------------------------------------------------------------------------------------------------------------------------------------------
10   conv2d_10 (Conv2D, DEPTHWISE_CONV_2D)        [b:1,h:32,w:32,c:48]    480/624           442,416     nl_9_nl              |                                pad_oi8/conv2d_oi8[10, 11] 
     nl_10_nl (Nonlinearity, DEPTHWISE_CONV_2D)   [b:1,h:32,w:32,c:48]                      49,152      conv2d_10            |            -49,152(-100.0%)   
------------------------------------------------------------------------------------------------------------------------------------------------------------------------------------------
11   conv2d_11 (Conv2D, CONV_2D)                  [b:1,h:32,w:32,c:8]     392/416           393,224     nl_10_nl             |                                conv2d_oi8[12]             
------------------------------------------------------------------------------------------------------------------------------------------------------------------------------------------
12   eltwise_12 (Eltwise, ADD)                    [b:1,h:32,w:32,c:8]                       8,192       conv2d_8             |                                eltwise_integer_oi8[13]    
                                                                                                        conv2d_11            |  
------------------------------------------------------------------------------------------------------------------------------------------------------------------------------------------
13   conv2d_13 (Conv2D, CONV_2D)                  [b:1,h:32,w:32,c:48]    432/576           393,264     eltwise_12           |                                conv2d_oi8[14]             
     nl_13_nl (Nonlinearity, CONV_2D)             [b:1,h:32,w:32,c:48]                      49,152      conv2d_13            |            -49,152(-100.0%)   
------------------------------------------------------------------------------------------------------------------------------------------------------------------------------------------
14   pad_14 (Pad, PAD)                            [b:1,h:33,w:33,c:48]                                  nl_13_nl             |                                pad_oi8[15]                
------------------------------------------------------------------------------------------------------------------------------------------------------------------------------------------
15   conv2d_15 (Conv2D, DEPTHWISE_CONV_2D)        [b:1,h:16,w:16,c:48]    480/624           110,640     pad_14               |                                conv2d_oi8[16]             
     nl_15_nl (Nonlinearity, DEPTHWISE_CONV_2D)   [b:1,h:16,w:16,c:48]                      12,288      conv2d_15            |            -12,288(-100.0%)   
------------------------------------------------------------------------------------------------------------------------------------------------------------------------------------------
16   conv2d_16 (Conv2D, CONV_2D)                  [b:1,h:16,w:16,c:16]    784/832           196,624     nl_15_nl             |                                conv2d_oi8[17]             
------------------------------------------------------------------------------------------------------------------------------------------------------------------------------------------
17   conv2d_17 (Conv2D, CONV_2D)                  [b:1,h:16,w:16,c:96]    1,632/1,920       393,312     conv2d_16            |                                conv2d_oi8[18]             
     nl_17_nl (Nonlinearity, CONV_2D)             [b:1,h:16,w:16,c:96]                      24,576      conv2d_17            |            -24,576(-100.0%)   
------------------------------------------------------------------------------------------------------------------------------------------------------------------------------------------
18   conv2d_18 (Conv2D, DEPTHWISE_CONV_2D)        [b:1,h:16,w:16,c:96]    960/1,248         221,280     nl_17_nl             |                                pad_oi8/conv2d_oi8[19, 20] 
     nl_18_nl (Nonlinearity, DEPTHWISE_CONV_2D)   [b:1,h:16,w:16,c:96]                      24,576      conv2d_18            |            -24,576(-100.0%)   
------------------------------------------------------------------------------------------------------------------------------------------------------------------------------------------
19   conv2d_19 (Conv2D, CONV_2D)                  [b:1,h:16,w:16,c:16]    1,552/1,600       393,232     nl_18_nl             |                                conv2d_oi8[21]             
------------------------------------------------------------------------------------------------------------------------------------------------------------------------------------------
20   eltwise_20 (Eltwise, ADD)                    [b:1,h:16,w:16,c:16]                      4,096       conv2d_16            |                                eltwise_integer_oi8[22]    
                                                                                                        conv2d_19            |  
------------------------------------------------------------------------------------------------------------------------------------------------------------------------------------------
21   conv2d_21 (Conv2D, CONV_2D)                  [b:1,h:16,w:16,c:96]    1,632/1,920       393,312     eltwise_20           |                                conv2d_oi8[23]             
     nl_21_nl (Nonlinearity, CONV_2D)             [b:1,h:16,w:16,c:96]                      24,576      conv2d_21            |            -24,576(-100.0%)   
------------------------------------------------------------------------------------------------------------------------------------------------------------------------------------------
22   conv2d_22 (Conv2D, DEPTHWISE_CONV_2D)        [b:1,h:16,w:16,c:96]    960/1,248         221,280     nl_21_nl             |                                pad_oi8/conv2d_oi8[24, 25] 
     nl_22_nl (Nonlinearity, DEPTHWISE_CONV_2D)   [b:1,h:16,w:16,c:96]                      24,576      conv2d_22            |            -24,576(-100.0%)   
------------------------------------------------------------------------------------------------------------------------------------------------------------------------------------------
23   conv2d_23 (Conv2D, CONV_2D)                  [b:1,h:16,w:16,c:16]    1,552/1,600       393,232     nl_22_nl             |                                conv2d_oi8[26]             
------------------------------------------------------------------------------------------------------------------------------------------------------------------------------------------
24   eltwise_24 (Eltwise, ADD)                    [b:1,h:16,w:16,c:16]                      4,096       eltwise_20           |                                eltwise_integer_oi8[27]    
                                                                                                        conv2d_23            |  
------------------------------------------------------------------------------------------------------------------------------------------------------------------------------------------
25   conv2d_25 (Conv2D, CONV_2D)                  [b:1,h:16,w:16,c:96]    1,632/1,920       393,312     eltwise_24           |                                conv2d_oi8[28]             
     nl_25_nl (Nonlinearity, CONV_2D)             [b:1,h:16,w:16,c:96]                      24,576      conv2d_25            |            -24,576(-100.0%)   
------------------------------------------------------------------------------------------------------------------------------------------------------------------------------------------
26   pad_26 (Pad, PAD)                            [b:1,h:17,w:17,c:96]                                  nl_25_nl             |                                pad_oi8[29]                
------------------------------------------------------------------------------------------------------------------------------------------------------------------------------------------
27   conv2d_27 (Conv2D, DEPTHWISE_CONV_2D)        [b:1,h:8,w:8,c:96]      960/1,248         55,392      pad_26               |                                conv2d_oi8[30]             
     nl_27_nl (Nonlinearity, DEPTHWISE_CONV_2D)   [b:1,h:8,w:8,c:96]                        6,144       conv2d_27            |            -6,144(-100.0%)    
------------------------------------------------------------------------------------------------------------------------------------------------------------------------------------------
28   conv2d_28 (Conv2D, CONV_2D)                  [b:1,h:8,w:8,c:24]      2,328/2,400       147,480     nl_27_nl             |                                conv2d_oi8[31]             
------------------------------------------------------------------------------------------------------------------------------------------------------------------------------------------
29   conv2d_29 (Conv2D, CONV_2D)                  [b:1,h:8,w:8,c:144]     3,600/4,032       221,328     conv2d_28            |                                conv2d_oi8[32]             
     nl_29_nl (Nonlinearity, CONV_2D)             [b:1,h:8,w:8,c:144]                       9,216       conv2d_29            |            -9,216(-100.0%)    
------------------------------------------------------------------------------------------------------------------------------------------------------------------------------------------
30   conv2d_30 (Conv2D, DEPTHWISE_CONV_2D)        [b:1,h:8,w:8,c:144]     1,440/1,872       83,088      nl_29_nl             |                                pad_oi8/conv2d_oi8[33, 34] 
     nl_30_nl (Nonlinearity, DEPTHWISE_CONV_2D)   [b:1,h:8,w:8,c:144]                       9,216       conv2d_30            |            -9,216(-100.0%)    
------------------------------------------------------------------------------------------------------------------------------------------------------------------------------------------
31   conv2d_31 (Conv2D, CONV_2D)                  [b:1,h:8,w:8,c:24]      3,480/3,552       221,208     nl_30_nl             |                                conv2d_oi8[35]             
------------------------------------------------------------------------------------------------------------------------------------------------------------------------------------------
32   eltwise_32 (Eltwise, ADD)                    [b:1,h:8,w:8,c:24]                        1,536       conv2d_28            |                                eltwise_integer_oi8[36]    
                                                                                                        conv2d_31            |  
------------------------------------------------------------------------------------------------------------------------------------------------------------------------------------------
33   conv2d_33 (Conv2D, CONV_2D)                  [b:1,h:8,w:8,c:144]     3,600/4,032       221,328     eltwise_32           |                                conv2d_oi8[37]             
     nl_33_nl (Nonlinearity, CONV_2D)             [b:1,h:8,w:8,c:144]                       9,216       conv2d_33            |            -9,216(-100.0%)    
------------------------------------------------------------------------------------------------------------------------------------------------------------------------------------------
34   conv2d_34 (Conv2D, DEPTHWISE_CONV_2D)        [b:1,h:8,w:8,c:144]     1,440/1,872       83,088      nl_33_nl             |                                pad_oi8/conv2d_oi8[38, 39] 
     nl_34_nl (Nonlinearity, DEPTHWISE_CONV_2D)   [b:1,h:8,w:8,c:144]                       9,216       conv2d_34            |            -9,216(-100.0%)    
------------------------------------------------------------------------------------------------------------------------------------------------------------------------------------------
35   conv2d_35 (Conv2D, CONV_2D)                  [b:1,h:8,w:8,c:24]      3,480/3,552       221,208     nl_34_nl             |                                conv2d_oi8[40]             
------------------------------------------------------------------------------------------------------------------------------------------------------------------------------------------
36   eltwise_36 (Eltwise, ADD)                    [b:1,h:8,w:8,c:24]                        1,536       eltwise_32           |                                eltwise_integer_oi8[41]    
                                                                                                        conv2d_35            |  
------------------------------------------------------------------------------------------------------------------------------------------------------------------------------------------
37   conv2d_37 (Conv2D, CONV_2D)                  [b:1,h:8,w:8,c:144]     3,600/4,032       221,328     eltwise_36           |                                conv2d_oi8[42]             
     nl_37_nl (Nonlinearity, CONV_2D)             [b:1,h:8,w:8,c:144]                       9,216       conv2d_37            |            -9,216(-100.0%)    
------------------------------------------------------------------------------------------------------------------------------------------------------------------------------------------
38   conv2d_38 (Conv2D, DEPTHWISE_CONV_2D)        [b:1,h:8,w:8,c:144]     1,440/1,872       83,088      nl_37_nl             |                                pad_oi8/conv2d_oi8[43, 44] 
     nl_38_nl (Nonlinearity, DEPTHWISE_CONV_2D)   [b:1,h:8,w:8,c:144]                       9,216       conv2d_38            |            -9,216(-100.0%)    
------------------------------------------------------------------------------------------------------------------------------------------------------------------------------------------
39   conv2d_39 (Conv2D, CONV_2D)                  [b:1,h:8,w:8,c:24]      3,480/3,552       221,208     nl_38_nl             |                                conv2d_oi8[45]             
------------------------------------------------------------------------------------------------------------------------------------------------------------------------------------------
40   eltwise_40 (Eltwise, ADD)                    [b:1,h:8,w:8,c:24]                        1,536       eltwise_36           |                                eltwise_integer_oi8[46]    
                                                                                                        conv2d_39            |  
------------------------------------------------------------------------------------------------------------------------------------------------------------------------------------------
41   conv2d_41 (Conv2D, CONV_2D)                  [b:1,h:8,w:8,c:144]     3,600/4,032       221,328     eltwise_40           |                                conv2d_oi8[47]             
     nl_41_nl (Nonlinearity, CONV_2D)             [b:1,h:8,w:8,c:144]                       9,216       conv2d_41            |            -9,216(-100.0%)    
------------------------------------------------------------------------------------------------------------------------------------------------------------------------------------------
42   conv2d_42 (Conv2D, DEPTHWISE_CONV_2D)        [b:1,h:8,w:8,c:144]     1,440/1,872       83,088      nl_41_nl             |                                pad_oi8/conv2d_oi8[48, 49] 
     nl_42_nl (Nonlinearity, DEPTHWISE_CONV_2D)   [b:1,h:8,w:8,c:144]                       9,216       conv2d_42            |            -9,216(-100.0%)    
------------------------------------------------------------------------------------------------------------------------------------------------------------------------------------------
43   conv2d_43 (Conv2D, CONV_2D)                  [b:1,h:8,w:8,c:32]      4,640/4,736       294,944     nl_42_nl             |                                conv2d_oi8[50]             
------------------------------------------------------------------------------------------------------------------------------------------------------------------------------------------
44   conv2d_44 (Conv2D, CONV_2D)                  [b:1,h:8,w:8,c:192]     6,336/6,912       393,408     conv2d_43            |                                conv2d_oi8[51]             
     nl_44_nl (Nonlinearity, CONV_2D)             [b:1,h:8,w:8,c:192]                       12,288      conv2d_44            |            -12,288(-100.0%)   
------------------------------------------------------------------------------------------------------------------------------------------------------------------------------------------
45   conv2d_45 (Conv2D, DEPTHWISE_CONV_2D)        [b:1,h:8,w:8,c:192]     1,920/2,496       110,784     nl_44_nl             |                                pad_oi8/conv2d_oi8[52, 53] 
     nl_45_nl (Nonlinearity, DEPTHWISE_CONV_2D)   [b:1,h:8,w:8,c:192]                       12,288      conv2d_45            |            -12,288(-100.0%)   
------------------------------------------------------------------------------------------------------------------------------------------------------------------------------------------
46   conv2d_46 (Conv2D, CONV_2D)                  [b:1,h:8,w:8,c:32]      6,176/6,272       393,248     nl_45_nl             |                                conv2d_oi8[54]             
------------------------------------------------------------------------------------------------------------------------------------------------------------------------------------------
47   eltwise_47 (Eltwise, ADD)                    [b:1,h:8,w:8,c:32]                        2,048       conv2d_43            |                                eltwise_integer_oi8[55]    
                                                                                                        conv2d_46            |  
------------------------------------------------------------------------------------------------------------------------------------------------------------------------------------------
48   conv2d_48 (Conv2D, CONV_2D)                  [b:1,h:8,w:8,c:192]     6,336/6,912       393,408     eltwise_47           |                                conv2d_oi8[56]             
     nl_48_nl (Nonlinearity, CONV_2D)             [b:1,h:8,w:8,c:192]                       12,288      conv2d_48            |            -12,288(-100.0%)   
------------------------------------------------------------------------------------------------------------------------------------------------------------------------------------------
49   conv2d_49 (Conv2D, DEPTHWISE_CONV_2D)        [b:1,h:8,w:8,c:192]     1,920/2,496       110,784     nl_48_nl             |                                pad_oi8/conv2d_oi8[57, 58] 
     nl_49_nl (Nonlinearity, DEPTHWISE_CONV_2D)   [b:1,h:8,w:8,c:192]                       12,288      conv2d_49            |            -12,288(-100.0%)   
------------------------------------------------------------------------------------------------------------------------------------------------------------------------------------------
50   conv2d_50 (Conv2D, CONV_2D)                  [b:1,h:8,w:8,c:32]      6,176/6,272       393,248     nl_49_nl             |                                conv2d_oi8[59]             
------------------------------------------------------------------------------------------------------------------------------------------------------------------------------------------
51   eltwise_51 (Eltwise, ADD)                    [b:1,h:8,w:8,c:32]                        2,048       eltwise_47           |                                eltwise_integer_oi8[60]    
                                                                                                        conv2d_50            |  
------------------------------------------------------------------------------------------------------------------------------------------------------------------------------------------
52   conv2d_52 (Conv2D, CONV_2D)                  [b:1,h:8,w:8,c:192]     6,336/6,912       393,408     eltwise_51           |                                conv2d_oi8[61]             
     nl_52_nl (Nonlinearity, CONV_2D)             [b:1,h:8,w:8,c:192]                       12,288      conv2d_52            |            -12,288(-100.0%)   
------------------------------------------------------------------------------------------------------------------------------------------------------------------------------------------
53   pad_53 (Pad, PAD)                            [b:1,h:9,w:9,c:192]                                   nl_52_nl             |                                pad_oi8[62]                
------------------------------------------------------------------------------------------------------------------------------------------------------------------------------------------
54   conv2d_54 (Conv2D, DEPTHWISE_CONV_2D)        [b:1,h:4,w:4,c:192]     1,920/2,496       27,840      pad_53               |                                conv2d_oi8[63]             
     nl_54_nl (Nonlinearity, DEPTHWISE_CONV_2D)   [b:1,h:4,w:4,c:192]                       3,072       conv2d_54            |            -3,072(-100.0%)    
------------------------------------------------------------------------------------------------------------------------------------------------------------------------------------------
55   conv2d_55 (Conv2D, CONV_2D)                  [b:1,h:4,w:4,c:56]      10,808/10,976     172,088     nl_54_nl             |                                conv2d_oi8[64]             
------------------------------------------------------------------------------------------------------------------------------------------------------------------------------------------
56   conv2d_56 (Conv2D, CONV_2D)                  [b:1,h:4,w:4,c:336]     19,152/20,160     301,392     conv2d_55            |                                conv2d_oi8[65]             
     nl_56_nl (Nonlinearity, CONV_2D)             [b:1,h:4,w:4,c:336]                       5,376       conv2d_56            |            -5,376(-100.0%)    
------------------------------------------------------------------------------------------------------------------------------------------------------------------------------------------
57   conv2d_57 (Conv2D, DEPTHWISE_CONV_2D)        [b:1,h:4,w:4,c:336]     3,360/4,368       48,720      nl_56_nl             |                                pad_oi8/conv2d_oi8[66, 67] 
     nl_57_nl (Nonlinearity, DEPTHWISE_CONV_2D)   [b:1,h:4,w:4,c:336]                       5,376       conv2d_57            |            -5,376(-100.0%)    
------------------------------------------------------------------------------------------------------------------------------------------------------------------------------------------
58   conv2d_58 (Conv2D, CONV_2D)                  [b:1,h:4,w:4,c:56]      18,872/19,040     301,112     nl_57_nl             |                                conv2d_oi8[68]             
------------------------------------------------------------------------------------------------------------------------------------------------------------------------------------------
59   eltwise_59 (Eltwise, ADD)                    [b:1,h:4,w:4,c:56]                        896         conv2d_55            |                                eltwise_integer_oi8[69]    
                                                                                                        conv2d_58            |  
------------------------------------------------------------------------------------------------------------------------------------------------------------------------------------------
60   conv2d_60 (Conv2D, CONV_2D)                  [b:1,h:4,w:4,c:336]     19,152/20,160     301,392     eltwise_59           |                                conv2d_oi8[70]             
     nl_60_nl (Nonlinearity, CONV_2D)             [b:1,h:4,w:4,c:336]                       5,376       conv2d_60            |            -5,376(-100.0%)    
------------------------------------------------------------------------------------------------------------------------------------------------------------------------------------------
61   conv2d_61 (Conv2D, DEPTHWISE_CONV_2D)        [b:1,h:4,w:4,c:336]     3,360/4,368       48,720      nl_60_nl             |                                pad_oi8/conv2d_oi8[71, 72] 
     nl_61_nl (Nonlinearity, DEPTHWISE_CONV_2D)   [b:1,h:4,w:4,c:336]                       5,376       conv2d_61            |            -5,376(-100.0%)    
------------------------------------------------------------------------------------------------------------------------------------------------------------------------------------------
62   conv2d_62 (Conv2D, CONV_2D)                  [b:1,h:4,w:4,c:56]      18,872/19,040     301,112     nl_61_nl             |                                conv2d_oi8[73]             
------------------------------------------------------------------------------------------------------------------------------------------------------------------------------------------
63   eltwise_63 (Eltwise, ADD)                    [b:1,h:4,w:4,c:56]                        896         eltwise_59           |                                eltwise_integer_oi8[74]    
                                                                                                        conv2d_62            |  
------------------------------------------------------------------------------------------------------------------------------------------------------------------------------------------
64   conv2d_64 (Conv2D, CONV_2D)                  [b:1,h:4,w:4,c:336]     19,152/20,160     301,392     eltwise_63           |                                conv2d_oi8[75]             
     nl_64_nl (Nonlinearity, CONV_2D)             [b:1,h:4,w:4,c:336]                       5,376       conv2d_64            |            -5,376(-100.0%)    
------------------------------------------------------------------------------------------------------------------------------------------------------------------------------------------
65   conv2d_65 (Conv2D, DEPTHWISE_CONV_2D)        [b:1,h:4,w:4,c:336]     3,360/4,368       48,720      nl_64_nl             |                                pad_oi8/conv2d_oi8[76, 77] 
     nl_65_nl (Nonlinearity, DEPTHWISE_CONV_2D)   [b:1,h:4,w:4,c:336]                       5,376       conv2d_65            |            -5,376(-100.0%)    
------------------------------------------------------------------------------------------------------------------------------------------------------------------------------------------
66   conv2d_66 (Conv2D, CONV_2D)                  [b:1,h:4,w:4,c:112]     37,744/38,080     602,224     nl_65_nl             |                                conv2d_oi8[78]             
------------------------------------------------------------------------------------------------------------------------------------------------------------------------------------------
67   conv2d_67 (Conv2D, CONV_2D)                  [b:1,h:4,w:4,c:1280]    144,640/148,480   2,295,040   conv2d_66            |                                conv2d_oi8[79]             
     nl_67_nl (Nonlinearity, CONV_2D)             [b:1,h:4,w:4,c:1280]                      20,480      conv2d_67            |            -20,480(-100.0%)   
------------------------------------------------------------------------------------------------------------------------------------------------------------------------------------------
68   pool_68 (Pool, MEAN)                         [b:1,h:1,w:1,c:1280]                      20,480      nl_67_nl             |                                pool_oi8[80]               
     reshape_68_reshape (Reshape, MEAN)           [b:1,c:1280]                                          pool_68              |                               
------------------------------------------------------------------------------------------------------------------------------------------------------------------------------------------
69   dense_69 (Dense, FULLY_CONNECTED)            [b:1,c:2]               2,562/2,568       2,562       reshape_68_reshape   |            +4(+0.2%)           dense_oi8/conv_of32[81, 82]
------------------------------------------------------------------------------------------------------------------------------------------------------------------------------------------
70   nl_70 (Nonlinearity, SOFTMAX)                [b:1,c:2]                                 30          dense_69             |            +4(+13.3%)          nl_of32/conv_ou8[o][83, 84]
------------------------------------------------------------------------------------------------------------------------------------------------------------------------------------------
71   conversion_71 (Conversion, QUANTIZE)         [b:1,c:2]                                 4           nl_70                |            -4(-100.0%)        
------------------------------------------------------------------------------------------------------------------------------------------------------------------------------------------
model/c-model: macc=19,952,548/19,095,976 -856,572(-4.3%) weights=412,776/412,776  activations=--/229,888 io=--/0



Generated C-graph summary
------------------------------------------------------------------------------------------------------------------------
model name            : mobv2_128x128x3_adam02_respin01_best_val_035_h5_uint8
c-name                : network
c-node #              : 85
c-array #             : 280
activations size      : 229888 (1 segments)
weights size          : 412776 (106 segments)
macc                  : 19095976
inputs                : ['input_1_output']
outputs               : ['nl_70_0_conversion_output']

C-Arrays (280)
------------------------------------------------------------------------------------------------------------------------------------
c_id   name (*_array)                 item/size       domain/mem-pool             c-type          fmt                       comment
------------------------------------------------------------------------------------------------------------------------------------
0      input_1_output                 49152/49152     activations/**default**     uint8_t         int8/ua                   /input 
1      conversion_0_output            49152/49153     activations/**default**     int8_t          int8/sa                          
2      conv2d_2_output                65536/65536     activations/**default**     int8_t          int8/sa                          
3      conv2d_3_pad_before_output     69696/69696     activations/**default**     int8_t          int8/sa                          
4      conv2d_3_output                65536/65536     activations/**default**     int8_t          int8/sa                          
5      conv2d_4_output                32768/32768     activations/**default**     int8_t          int8/sa                          
6      conv2d_5_output                196608/196608   activations/**default**     int8_t          int8/sa                          
7      pad_6_output                   202800/202800   activations/**default**     int8_t          int8/sa                          
8      conv2d_7_output                49152/49152     activations/**default**     int8_t          int8/sa                          
9      conv2d_8_output                8192/8192       activations/**default**     int8_t          int8/sa                          
10     conv2d_9_output                49152/49152     activations/**default**     int8_t          int8/sa                          
11     conv2d_10_pad_before_output    55488/55488     activations/**default**     int8_t          int8/sa                          
12     conv2d_10_output               49152/49152     activations/**default**     int8_t          int8/sa                          
13     conv2d_11_output               8192/8192       activations/**default**     int8_t          int8/sa                          
14     eltwise_12_output              8192/8192       activations/**default**     int8_t          int8/sa                          
15     conv2d_13_output               49152/49152     activations/**default**     int8_t          int8/sa                          
16     pad_14_output                  52272/52272     activations/**default**     int8_t          int8/sa                          
17     conv2d_15_output               12288/12288     activations/**default**     int8_t          int8/sa                          
18     conv2d_16_output               4096/4096       activations/**default**     int8_t          int8/sa                          
19     conv2d_17_output               24576/24576     activations/**default**     int8_t          int8/sa                          
20     conv2d_18_pad_before_output    31104/31104     activations/**default**     int8_t          int8/sa                          
21     conv2d_18_output               24576/24576     activations/**default**     int8_t          int8/sa                          
22     conv2d_19_output               4096/4096       activations/**default**     int8_t          int8/sa                          
23     eltwise_20_output              4096/4096       activations/**default**     int8_t          int8/sa                          
24     conv2d_21_output               24576/24576     activations/**default**     int8_t          int8/sa                          
25     conv2d_22_pad_before_output    31104/31104     activations/**default**     int8_t          int8/sa                          
26     conv2d_22_output               24576/24576     activations/**default**     int8_t          int8/sa                          
27     conv2d_23_output               4096/4096       activations/**default**     int8_t          int8/sa                          
28     eltwise_24_output              4096/4096       activations/**default**     int8_t          int8/sa                          
29     conv2d_25_output               24576/24576     activations/**default**     int8_t          int8/sa                          
30     pad_26_output                  27744/27744     activations/**default**     int8_t          int8/sa                          
31     conv2d_27_output               6144/6144       activations/**default**     int8_t          int8/sa                          
32     conv2d_28_output               1536/1536       activations/**default**     int8_t          int8/sa                          
33     conv2d_29_output               9216/9216       activations/**default**     int8_t          int8/sa                          
34     conv2d_30_pad_before_output    14400/14400     activations/**default**     int8_t          int8/sa                          
35     conv2d_30_output               9216/9216       activations/**default**     int8_t          int8/sa                          
36     conv2d_31_output               1536/1536       activations/**default**     int8_t          int8/sa                          
37     eltwise_32_output              1536/1536       activations/**default**     int8_t          int8/sa                          
38     conv2d_33_output               9216/9216       activations/**default**     int8_t          int8/sa                          
39     conv2d_34_pad_before_output    14400/14400     activations/**default**     int8_t          int8/sa                          
40     conv2d_34_output               9216/9216       activations/**default**     int8_t          int8/sa                          
41     conv2d_35_output               1536/1536       activations/**default**     int8_t          int8/sa                          
42     eltwise_36_output              1536/1536       activations/**default**     int8_t          int8/sa                          
43     conv2d_37_output               9216/9216       activations/**default**     int8_t          int8/sa                          
44     conv2d_38_pad_before_output    14400/14400     activations/**default**     int8_t          int8/sa                          
45     conv2d_38_output               9216/9216       activations/**default**     int8_t          int8/sa                          
46     conv2d_39_output               1536/1536       activations/**default**     int8_t          int8/sa                          
47     eltwise_40_output              1536/1536       activations/**default**     int8_t          int8/sa                          
48     conv2d_41_output               9216/9216       activations/**default**     int8_t          int8/sa                          
49     conv2d_42_pad_before_output    14400/14400     activations/**default**     int8_t          int8/sa                          
50     conv2d_42_output               9216/9216       activations/**default**     int8_t          int8/sa                          
51     conv2d_43_output               2048/2048       activations/**default**     int8_t          int8/sa                          
52     conv2d_44_output               12288/12288     activations/**default**     int8_t          int8/sa                          
53     conv2d_45_pad_before_output    19200/19200     activations/**default**     int8_t          int8/sa                          
54     conv2d_45_output               12288/12288     activations/**default**     int8_t          int8/sa                          
55     conv2d_46_output               2048/2048       activations/**default**     int8_t          int8/sa                          
56     eltwise_47_output              2048/2048       activations/**default**     int8_t          int8/sa                          
57     conv2d_48_output               12288/12288     activations/**default**     int8_t          int8/sa                          
58     conv2d_49_pad_before_output    19200/19200     activations/**default**     int8_t          int8/sa                          
59     conv2d_49_output               12288/12288     activations/**default**     int8_t          int8/sa                          
60     conv2d_50_output               2048/2048       activations/**default**     int8_t          int8/sa                          
61     eltwise_51_output              2048/2048       activations/**default**     int8_t          int8/sa                          
62     conv2d_52_output               12288/12288     activations/**default**     int8_t          int8/sa                          
63     pad_53_output                  15552/15552     activations/**default**     int8_t          int8/sa                          
64     conv2d_54_output               3072/3072       activations/**default**     int8_t          int8/sa                          
65     conv2d_55_output               896/896         activations/**default**     int8_t          int8/sa                          
66     conv2d_56_output               5376/5376       activations/**default**     int8_t          int8/sa                          
67     conv2d_57_pad_before_output    12096/12096     activations/**default**     int8_t          int8/sa                          
68     conv2d_57_output               5376/5376       activations/**default**     int8_t          int8/sa                          
69     conv2d_58_output               896/896         activations/**default**     int8_t          int8/sa                          
70     eltwise_59_output              896/896         activations/**default**     int8_t          int8/sa                          
71     conv2d_60_output               5376/5376       activations/**default**     int8_t          int8/sa                          
72     conv2d_61_pad_before_output    12096/12096     activations/**default**     int8_t          int8/sa                          
73     conv2d_61_output               5376/5376       activations/**default**     int8_t          int8/sa                          
74     conv2d_62_output               896/896         activations/**default**     int8_t          int8/sa                          
75     eltwise_63_output              896/896         activations/**default**     int8_t          int8/sa                          
76     conv2d_64_output               5376/5376       activations/**default**     int8_t          int8/sa                          
77     conv2d_65_pad_before_output    12096/12096     activations/**default**     int8_t          int8/sa                          
78     conv2d_65_output               5376/5376       activations/**default**     int8_t          int8/sa                          
79     conv2d_66_output               1792/1792       activations/**default**     int8_t          int8/sa                          
80     conv2d_67_output               20480/20480     activations/**default**     int8_t          int8/sa                          
81     pool_68_output                 1280/1280       activations/**default**     int8_t          int8/sa                          
82     dense_69_output                2/2             activations/**default**     int8_t          int8/sa                          
83     dense_69_0_conversion_output   2/8             activations/**default**     float           float                            
84     nl_70_output                   2/8             activations/**default**     float           float                            
85     nl_70_0_conversion_output      2/2             activations/**default**     uint8_t         int8/ua                   /output
86     conv2d_2_weights               432/432         weights/conv2d_2_weights    const int8_t    int8/sa/channel (16)             
87     conv2d_2_bias                  16/64           weights/conv2d_2_bias       const int32_t   int32/sa/channel (16)            
88     conv2d_3_weights               144/144         weights/conv2d_3_weights    const int8_t    int8/sa/channel (16)             
89     conv2d_3_bias                  16/64           weights/conv2d_3_bias       const int32_t   int32/sa/channel (16)            
90     conv2d_4_weights               128/128         weights/conv2d_4_weights    const int8_t    int8/sa/channel (8)              
91     conv2d_4_bias                  8/32            weights/conv2d_4_bias       const int32_t   int32/sa/channel (8)             
92     conv2d_5_weights               384/384         weights/conv2d_5_weights    const int8_t    int8/sa/channel (48)             
93     conv2d_5_bias                  48/192          weights/conv2d_5_bias       const int32_t   int32/sa/channel (48)            
94     conv2d_7_weights               432/432         weights/conv2d_7_weights    const int8_t    int8/sa/channel (48)             
95     conv2d_7_bias                  48/192          weights/conv2d_7_bias       const int32_t   int32/sa/channel (48)            
96     conv2d_8_weights               384/384         weights/conv2d_8_weights    const int8_t    int8/sa/channel (8)              
97     conv2d_8_bias                  8/32            weights/conv2d_8_bias       const int32_t   int32/sa/channel (8)             
98     conv2d_9_weights               384/384         weights/conv2d_9_weights    const int8_t    int8/sa/channel (48)             
99     conv2d_9_bias                  48/192          weights/conv2d_9_bias       const int32_t   int32/sa/channel (48)            
100    conv2d_10_weights              432/432         weights/conv2d_10_weights   const int8_t    int8/sa/channel (48)             
101    conv2d_10_bias                 48/192          weights/conv2d_10_bias      const int32_t   int32/sa/channel (48)            
102    conv2d_11_weights              384/384         weights/conv2d_11_weights   const int8_t    int8/sa/channel (8)              
103    conv2d_11_bias                 8/32            weights/conv2d_11_bias      const int32_t   int32/sa/channel (8)             
104    conv2d_13_weights              384/384         weights/conv2d_13_weights   const int8_t    int8/sa/channel (48)             
105    conv2d_13_bias                 48/192          weights/conv2d_13_bias      const int32_t   int32/sa/channel (48)            
106    conv2d_15_weights              432/432         weights/conv2d_15_weights   const int8_t    int8/sa/channel (48)             
107    conv2d_15_bias                 48/192          weights/conv2d_15_bias      const int32_t   int32/sa/channel (48)            
108    conv2d_16_weights              768/768         weights/conv2d_16_weights   const int8_t    int8/sa/channel (16)             
109    conv2d_16_bias                 16/64           weights/conv2d_16_bias      const int32_t   int32/sa/channel (16)            
110    conv2d_17_weights              1536/1536       weights/conv2d_17_weights   const int8_t    int8/sa/channel (96)             
111    conv2d_17_bias                 96/384          weights/conv2d_17_bias      const int32_t   int32/sa/channel (96)            
112    conv2d_18_weights              864/864         weights/conv2d_18_weights   const int8_t    int8/sa/channel (96)             
113    conv2d_18_bias                 96/384          weights/conv2d_18_bias      const int32_t   int32/sa/channel (96)            
114    conv2d_19_weights              1536/1536       weights/conv2d_19_weights   const int8_t    int8/sa/channel (16)             
115    conv2d_19_bias                 16/64           weights/conv2d_19_bias      const int32_t   int32/sa/channel (16)            
116    conv2d_21_weights              1536/1536       weights/conv2d_21_weights   const int8_t    int8/sa/channel (96)             
117    conv2d_21_bias                 96/384          weights/conv2d_21_bias      const int32_t   int32/sa/channel (96)            
118    conv2d_22_weights              864/864         weights/conv2d_22_weights   const int8_t    int8/sa/channel (96)             
119    conv2d_22_bias                 96/384          weights/conv2d_22_bias      const int32_t   int32/sa/channel (96)            
120    conv2d_23_weights              1536/1536       weights/conv2d_23_weights   const int8_t    int8/sa/channel (16)             
121    conv2d_23_bias                 16/64           weights/conv2d_23_bias      const int32_t   int32/sa/channel (16)            
122    conv2d_25_weights              1536/1536       weights/conv2d_25_weights   const int8_t    int8/sa/channel (96)             
123    conv2d_25_bias                 96/384          weights/conv2d_25_bias      const int32_t   int32/sa/channel (96)            
124    conv2d_27_weights              864/864         weights/conv2d_27_weights   const int8_t    int8/sa/channel (96)             
125    conv2d_27_bias                 96/384          weights/conv2d_27_bias      const int32_t   int32/sa/channel (96)            
126    conv2d_28_weights              2304/2304       weights/conv2d_28_weights   const int8_t    int8/sa/channel (24)             
127    conv2d_28_bias                 24/96           weights/conv2d_28_bias      const int32_t   int32/sa/channel (24)            
128    conv2d_29_weights              3456/3456       weights/conv2d_29_weights   const int8_t    int8/sa/channel (144)            
129    conv2d_29_bias                 144/576         weights/conv2d_29_bias      const int32_t   int32/sa/channel (144)           
130    conv2d_30_weights              1296/1296       weights/conv2d_30_weights   const int8_t    int8/sa/channel (144)            
131    conv2d_30_bias                 144/576         weights/conv2d_30_bias      const int32_t   int32/sa/channel (144)           
132    conv2d_31_weights              3456/3456       weights/conv2d_31_weights   const int8_t    int8/sa/channel (24)             
133    conv2d_31_bias                 24/96           weights/conv2d_31_bias      const int32_t   int32/sa/channel (24)            
134    conv2d_33_weights              3456/3456       weights/conv2d_33_weights   const int8_t    int8/sa/channel (144)            
135    conv2d_33_bias                 144/576         weights/conv2d_33_bias      const int32_t   int32/sa/channel (144)           
136    conv2d_34_weights              1296/1296       weights/conv2d_34_weights   const int8_t    int8/sa/channel (144)            
137    conv2d_34_bias                 144/576         weights/conv2d_34_bias      const int32_t   int32/sa/channel (144)           
138    conv2d_35_weights              3456/3456       weights/conv2d_35_weights   const int8_t    int8/sa/channel (24)             
139    conv2d_35_bias                 24/96           weights/conv2d_35_bias      const int32_t   int32/sa/channel (24)            
140    conv2d_37_weights              3456/3456       weights/conv2d_37_weights   const int8_t    int8/sa/channel (144)            
141    conv2d_37_bias                 144/576         weights/conv2d_37_bias      const int32_t   int32/sa/channel (144)           
142    conv2d_38_weights              1296/1296       weights/conv2d_38_weights   const int8_t    int8/sa/channel (144)            
143    conv2d_38_bias                 144/576         weights/conv2d_38_bias      const int32_t   int32/sa/channel (144)           
144    conv2d_39_weights              3456/3456       weights/conv2d_39_weights   const int8_t    int8/sa/channel (24)             
145    conv2d_39_bias                 24/96           weights/conv2d_39_bias      const int32_t   int32/sa/channel (24)            
146    conv2d_41_weights              3456/3456       weights/conv2d_41_weights   const int8_t    int8/sa/channel (144)            
147    conv2d_41_bias                 144/576         weights/conv2d_41_bias      const int32_t   int32/sa/channel (144)           
148    conv2d_42_weights              1296/1296       weights/conv2d_42_weights   const int8_t    int8/sa/channel (144)            
149    conv2d_42_bias                 144/576         weights/conv2d_42_bias      const int32_t   int32/sa/channel (144)           
150    conv2d_43_weights              4608/4608       weights/conv2d_43_weights   const int8_t    int8/sa/channel (32)             
151    conv2d_43_bias                 32/128          weights/conv2d_43_bias      const int32_t   int32/sa/channel (32)            
152    conv2d_44_weights              6144/6144       weights/conv2d_44_weights   const int8_t    int8/sa/channel (192)            
153    conv2d_44_bias                 192/768         weights/conv2d_44_bias      const int32_t   int32/sa/channel (192)           
154    conv2d_45_weights              1728/1728       weights/conv2d_45_weights   const int8_t    int8/sa/channel (192)            
155    conv2d_45_bias                 192/768         weights/conv2d_45_bias      const int32_t   int32/sa/channel (192)           
156    conv2d_46_weights              6144/6144       weights/conv2d_46_weights   const int8_t    int8/sa/channel (32)             
157    conv2d_46_bias                 32/128          weights/conv2d_46_bias      const int32_t   int32/sa/channel (32)            
158    conv2d_48_weights              6144/6144       weights/conv2d_48_weights   const int8_t    int8/sa/channel (192)            
159    conv2d_48_bias                 192/768         weights/conv2d_48_bias      const int32_t   int32/sa/channel (192)           
160    conv2d_49_weights              1728/1728       weights/conv2d_49_weights   const int8_t    int8/sa/channel (192)            
161    conv2d_49_bias                 192/768         weights/conv2d_49_bias      const int32_t   int32/sa/channel (192)           
162    conv2d_50_weights              6144/6144       weights/conv2d_50_weights   const int8_t    int8/sa/channel (32)             
163    conv2d_50_bias                 32/128          weights/conv2d_50_bias      const int32_t   int32/sa/channel (32)            
164    conv2d_52_weights              6144/6144       weights/conv2d_52_weights   const int8_t    int8/sa/channel (192)            
165    conv2d_52_bias                 192/768         weights/conv2d_52_bias      const int32_t   int32/sa/channel (192)           
166    conv2d_54_weights              1728/1728       weights/conv2d_54_weights   const int8_t    int8/sa/channel (192)            
167    conv2d_54_bias                 192/768         weights/conv2d_54_bias      const int32_t   int32/sa/channel (192)           
168    conv2d_55_weights              10752/10752     weights/conv2d_55_weights   const int8_t    int8/sa/channel (56)             
169    conv2d_55_bias                 56/224          weights/conv2d_55_bias      const int32_t   int32/sa/channel (56)            
170    conv2d_56_weights              18816/18816     weights/conv2d_56_weights   const int8_t    int8/sa/channel (336)            
171    conv2d_56_bias                 336/1344        weights/conv2d_56_bias      const int32_t   int32/sa/channel (336)           
172    conv2d_57_weights              3024/3024       weights/conv2d_57_weights   const int8_t    int8/sa/channel (336)            
173    conv2d_57_bias                 336/1344        weights/conv2d_57_bias      const int32_t   int32/sa/channel (336)           
174    conv2d_58_weights              18816/18816     weights/conv2d_58_weights   const int8_t    int8/sa/channel (56)             
175    conv2d_58_bias                 56/224          weights/conv2d_58_bias      const int32_t   int32/sa/channel (56)            
176    conv2d_60_weights              18816/18816     weights/conv2d_60_weights   const int8_t    int8/sa/channel (336)            
177    conv2d_60_bias                 336/1344        weights/conv2d_60_bias      const int32_t   int32/sa/channel (336)           
178    conv2d_61_weights              3024/3024       weights/conv2d_61_weights   const int8_t    int8/sa/channel (336)            
179    conv2d_61_bias                 336/1344        weights/conv2d_61_bias      const int32_t   int32/sa/channel (336)           
180    conv2d_62_weights              18816/18816     weights/conv2d_62_weights   const int8_t    int8/sa/channel (56)             
181    conv2d_62_bias                 56/224          weights/conv2d_62_bias      const int32_t   int32/sa/channel (56)            
182    conv2d_64_weights              18816/18816     weights/conv2d_64_weights   const int8_t    int8/sa/channel (336)            
183    conv2d_64_bias                 336/1344        weights/conv2d_64_bias      const int32_t   int32/sa/channel (336)           
184    conv2d_65_weights              3024/3024       weights/conv2d_65_weights   const int8_t    int8/sa/channel (336)            
185    conv2d_65_bias                 336/1344        weights/conv2d_65_bias      const int32_t   int32/sa/channel (336)           
186    conv2d_66_weights              37632/37632     weights/conv2d_66_weights   const int8_t    int8/sa/channel (112)            
187    conv2d_66_bias                 112/448         weights/conv2d_66_bias      const int32_t   int32/sa/channel (112)           
188    conv2d_67_weights              143360/143360   weights/conv2d_67_weights   const int8_t    int8/sa/channel (1280)           
189    conv2d_67_bias                 1280/5120       weights/conv2d_67_bias      const int32_t   int32/sa/channel (1280)          
190    dense_69_weights               2560/2560       weights/dense_69_weights    const int8_t    int8/sa                          
191    dense_69_bias                  2/8             weights/dense_69_bias       const int32_t   int32/sa                         
192    conv2d_2_scratch0              1196/1196       activations/**default**     int8_t          int/ss                           
193    conv2d_2_scratch1              65536/65536     activations/**default**     int8_t          int8/sa                          
194    conv2d_3_scratch0              593/593         activations/**default**     int8_t          int/ss                           
195    conv2d_3_scratch1              65536/65536     activations/**default**     int8_t          int8/sa                          
196    conv2d_4_scratch0              144/144         activations/**default**     int8_t          int/ss                           
197    conv2d_5_scratch0              512/512         activations/**default**     int8_t          int/ss                           
198    conv2d_5_scratch1              196608/196608   activations/**default**     int8_t          int8/sa                          
199    conv2d_7_scratch0              1777/1777       activations/**default**     int8_t          int/ss                           
200    conv2d_7_scratch1              49152/49152     activations/**default**     int8_t          int8/sa                          
201    conv2d_8_scratch0              272/272         activations/**default**     int8_t          int/ss                           
202    conv2d_9_scratch0              512/512         activations/**default**     int8_t          int/ss                           
203    conv2d_9_scratch1              49152/49152     activations/**default**     int8_t          int8/sa                          
204    conv2d_10_scratch0             1777/1777       activations/**default**     int8_t          int/ss                           
205    conv2d_10_scratch1             49152/49152     activations/**default**     int8_t          int8/sa                          
206    conv2d_11_scratch0             272/272         activations/**default**     int8_t          int/ss                           
207    conv2d_13_scratch0             512/512         activations/**default**     int8_t          int/ss                           
208    conv2d_13_scratch1             49152/49152     activations/**default**     int8_t          int8/sa                          
209    conv2d_15_scratch0             1777/1777       activations/**default**     int8_t          int/ss                           
210    conv2d_15_scratch1             12288/12288     activations/**default**     int8_t          int8/sa                          
211    conv2d_16_scratch0             352/352         activations/**default**     int8_t          int/ss                           
212    conv2d_17_scratch0             1024/1024       activations/**default**     int8_t          int/ss                           
213    conv2d_17_scratch1             24576/24576     activations/**default**     int8_t          int8/sa                          
214    conv2d_18_scratch0             3553/3553       activations/**default**     int8_t          int/ss                           
215    conv2d_18_scratch1             24576/24576     activations/**default**     int8_t          int8/sa                          
216    conv2d_19_scratch0             544/544         activations/**default**     int8_t          int/ss                           
217    conv2d_21_scratch0             1024/1024       activations/**default**     int8_t          int/ss                           
218    conv2d_21_scratch1             24576/24576     activations/**default**     int8_t          int8/sa                          
219    conv2d_22_scratch0             3553/3553       activations/**default**     int8_t          int/ss                           
220    conv2d_22_scratch1             24576/24576     activations/**default**     int8_t          int8/sa                          
221    conv2d_23_scratch0             544/544         activations/**default**     int8_t          int/ss                           
222    conv2d_25_scratch0             1024/1024       activations/**default**     int8_t          int/ss                           
223    conv2d_25_scratch1             24576/24576     activations/**default**     int8_t          int8/sa                          
224    conv2d_27_scratch0             3553/3553       activations/**default**     int8_t          int/ss                           
225    conv2d_27_scratch1             6144/6144       activations/**default**     int8_t          int8/sa                          
226    conv2d_28_scratch0             624/624         activations/**default**     int8_t          int/ss                           
227    conv2d_29_scratch0             1536/1536       activations/**default**     int8_t          int/ss                           
228    conv2d_29_scratch1             9216/9216       activations/**default**     int8_t          int8/sa                          
229    conv2d_30_scratch0             5329/5329       activations/**default**     int8_t          int/ss                           
230    conv2d_30_scratch1             9216/9216       activations/**default**     int8_t          int8/sa                          
231    conv2d_31_scratch0             816/816         activations/**default**     int8_t          int/ss                           
232    conv2d_33_scratch0             1536/1536       activations/**default**     int8_t          int/ss                           
233    conv2d_33_scratch1             9216/9216       activations/**default**     int8_t          int8/sa                          
234    conv2d_34_scratch0             5329/5329       activations/**default**     int8_t          int/ss                           
235    conv2d_34_scratch1             9216/9216       activations/**default**     int8_t          int8/sa                          
236    conv2d_35_scratch0             816/816         activations/**default**     int8_t          int/ss                           
237    conv2d_37_scratch0             1536/1536       activations/**default**     int8_t          int/ss                           
238    conv2d_37_scratch1             9216/9216       activations/**default**     int8_t          int8/sa                          
239    conv2d_38_scratch0             5329/5329       activations/**default**     int8_t          int/ss                           
240    conv2d_38_scratch1             9216/9216       activations/**default**     int8_t          int8/sa                          
241    conv2d_39_scratch0             816/816         activations/**default**     int8_t          int/ss                           
242    conv2d_41_scratch0             1536/1536       activations/**default**     int8_t          int/ss                           
243    conv2d_41_scratch1             9216/9216       activations/**default**     int8_t          int8/sa                          
244    conv2d_42_scratch0             5329/5329       activations/**default**     int8_t          int/ss                           
245    conv2d_42_scratch1             9216/9216       activations/**default**     int8_t          int8/sa                          
246    conv2d_43_scratch0             896/896         activations/**default**     int8_t          int/ss                           
247    conv2d_44_scratch0             2048/2048       activations/**default**     int8_t          int/ss                           
248    conv2d_44_scratch1             12288/12288     activations/**default**     int8_t          int8/sa                          
249    conv2d_45_scratch0             7105/7105       activations/**default**     int8_t          int/ss                           
250    conv2d_45_scratch1             12288/12288     activations/**default**     int8_t          int8/sa                          
251    conv2d_46_scratch0             1088/1088       activations/**default**     int8_t          int/ss                           
252    conv2d_48_scratch0             2048/2048       activations/**default**     int8_t          int/ss                           
253    conv2d_48_scratch1             12288/12288     activations/**default**     int8_t          int8/sa                          
254    conv2d_49_scratch0             7105/7105       activations/**default**     int8_t          int/ss                           
255    conv2d_49_scratch1             12288/12288     activations/**default**     int8_t          int8/sa                          
256    conv2d_50_scratch0             1088/1088       activations/**default**     int8_t          int/ss                           
257    conv2d_52_scratch0             2048/2048       activations/**default**     int8_t          int/ss                           
258    conv2d_52_scratch1             12288/12288     activations/**default**     int8_t          int8/sa                          
259    conv2d_54_scratch0             7105/7105       activations/**default**     int8_t          int/ss                           
260    conv2d_54_scratch1             3072/3072       activations/**default**     int8_t          int8/sa                          
261    conv2d_55_scratch0             1328/1328       activations/**default**     int8_t          int/ss                           
262    conv2d_56_scratch0             3584/3584       activations/**default**     int8_t          int/ss                           
263    conv2d_56_scratch1             5376/5376       activations/**default**     int8_t          int8/sa                          
264    conv2d_57_scratch0             12433/12433     activations/**default**     int8_t          int/ss                           
265    conv2d_57_scratch1             5376/5376       activations/**default**     int8_t          int8/sa                          
266    conv2d_58_scratch0             1904/1904       activations/**default**     int8_t          int/ss                           
267    conv2d_60_scratch0             3584/3584       activations/**default**     int8_t          int/ss                           
268    conv2d_60_scratch1             5376/5376       activations/**default**     int8_t          int8/sa                          
269    conv2d_61_scratch0             12433/12433     activations/**default**     int8_t          int/ss                           
270    conv2d_61_scratch1             5376/5376       activations/**default**     int8_t          int8/sa                          
271    conv2d_62_scratch0             1904/1904       activations/**default**     int8_t          int/ss                           
272    conv2d_64_scratch0             3584/3584       activations/**default**     int8_t          int/ss                           
273    conv2d_64_scratch1             5376/5376       activations/**default**     int8_t          int8/sa                          
274    conv2d_65_scratch0             12433/12433     activations/**default**     int8_t          int/ss                           
275    conv2d_65_scratch1             5376/5376       activations/**default**     int8_t          int8/sa                          
276    conv2d_66_scratch0             2464/2464       activations/**default**     int8_t          int/ss                           
277    conv2d_67_scratch0             13248/13248     activations/**default**     int8_t          int/ss                           
278    conv2d_67_scratch1             20480/20480     activations/**default**     int8_t          int8/sa                          
279    dense_69_scratch0              1280/2560       activations/**default**     int16_t         int/ss                           
------------------------------------------------------------------------------------------------------------------------------------

C-Layers (85)
---------------------------------------------------------------------------------------------------------------------------------
c_id   name (*_layer)          id   layer_type         macc      rom      tensors                           shape (array id)    
---------------------------------------------------------------------------------------------------------------------------------
0      conversion_0            0    conv               98304     0        I: input_1_output                 (1,128,128,3) (0)   
                                                                          O: conversion_0_output            (1,128,128,3) (1)   
---------------------------------------------------------------------------------------------------------------------------------
1      conv2d_2                2    conv2d             1769488   496      I: conversion_0_output            (1,128,128,3) (1)   
                                                                          S: conv2d_2_scratch0                                  
                                                                          S: conv2d_2_scratch1                                  
                                                                          W: conv2d_2_weights               (3,16,3,3) (86)     
                                                                          W: conv2d_2_bias                  (1,1,1,16) (87)     
                                                                          O: conv2d_2_output                (1,64,64,16) (2)    
---------------------------------------------------------------------------------------------------------------------------------
2      conv2d_3_pad_before     3    pad                0         0        I: conv2d_2_output                (1,64,64,16) (2)    
                                                                          O: conv2d_3_pad_before_output     (1,66,66,16) (3)    
---------------------------------------------------------------------------------------------------------------------------------
3      conv2d_3                3    conv2d             589840    208      I: conv2d_3_pad_before_output     (1,66,66,16) (3)    
                                                                          S: conv2d_3_scratch0                                  
                                                                          S: conv2d_3_scratch1                                  
                                                                          W: conv2d_3_weights               (16,1,3,3) (88)     
                                                                          W: conv2d_3_bias                  (1,1,1,16) (89)     
                                                                          O: conv2d_3_output                (1,64,64,16) (4)    
---------------------------------------------------------------------------------------------------------------------------------
4      conv2d_4                4    conv2d             524296    160      I: conv2d_3_output                (1,64,64,16) (4)    
                                                                          S: conv2d_4_scratch0                                  
                                                                          W: conv2d_4_weights               (16,8,1,1) (90)     
                                                                          W: conv2d_4_bias                  (1,1,1,8) (91)      
                                                                          O: conv2d_4_output                (1,64,64,8) (5)     
---------------------------------------------------------------------------------------------------------------------------------
5      conv2d_5                5    conv2d             1572912   576      I: conv2d_4_output                (1,64,64,8) (5)     
                                                                          S: conv2d_5_scratch0                                  
                                                                          S: conv2d_5_scratch1                                  
                                                                          W: conv2d_5_weights               (8,48,1,1) (92)     
                                                                          W: conv2d_5_bias                  (1,1,1,48) (93)     
                                                                          O: conv2d_5_output                (1,64,64,48) (6)    
---------------------------------------------------------------------------------------------------------------------------------
6      pad_6                   6    pad                0         0        I: conv2d_5_output                (1,64,64,48) (6)    
                                                                          O: pad_6_output                   (1,65,65,48) (7)    
---------------------------------------------------------------------------------------------------------------------------------
7      conv2d_7                7    conv2d             442416    624      I: pad_6_output                   (1,65,65,48) (7)    
                                                                          S: conv2d_7_scratch0                                  
                                                                          S: conv2d_7_scratch1                                  
                                                                          W: conv2d_7_weights               (48,1,3,3) (94)     
                                                                          W: conv2d_7_bias                  (1,1,1,48) (95)     
                                                                          O: conv2d_7_output                (1,32,32,48) (8)    
---------------------------------------------------------------------------------------------------------------------------------
8      conv2d_8                8    conv2d             393224    416      I: conv2d_7_output                (1,32,32,48) (8)    
                                                                          S: conv2d_8_scratch0                                  
                                                                          W: conv2d_8_weights               (48,8,1,1) (96)     
                                                                          W: conv2d_8_bias                  (1,1,1,8) (97)      
                                                                          O: conv2d_8_output                (1,32,32,8) (9)     
---------------------------------------------------------------------------------------------------------------------------------
9      conv2d_9                9    conv2d             393264    576      I: conv2d_8_output                (1,32,32,8) (9)     
                                                                          S: conv2d_9_scratch0                                  
                                                                          S: conv2d_9_scratch1                                  
                                                                          W: conv2d_9_weights               (8,48,1,1) (98)     
                                                                          W: conv2d_9_bias                  (1,1,1,48) (99)     
                                                                          O: conv2d_9_output                (1,32,32,48) (10)   
---------------------------------------------------------------------------------------------------------------------------------
10     conv2d_10_pad_before    10   pad                0         0        I: conv2d_9_output                (1,32,32,48) (10)   
                                                                          O: conv2d_10_pad_before_output    (1,34,34,48) (11)   
---------------------------------------------------------------------------------------------------------------------------------
11     conv2d_10               10   conv2d             442416    624      I: conv2d_10_pad_before_output    (1,34,34,48) (11)   
                                                                          S: conv2d_10_scratch0                                 
                                                                          S: conv2d_10_scratch1                                 
                                                                          W: conv2d_10_weights              (48,1,3,3) (100)    
                                                                          W: conv2d_10_bias                 (1,1,1,48) (101)    
                                                                          O: conv2d_10_output               (1,32,32,48) (12)   
---------------------------------------------------------------------------------------------------------------------------------
12     conv2d_11               11   conv2d             393224    416      I: conv2d_10_output               (1,32,32,48) (12)   
                                                                          S: conv2d_11_scratch0                                 
                                                                          W: conv2d_11_weights              (48,8,1,1) (102)    
                                                                          W: conv2d_11_bias                 (1,1,1,8) (103)     
                                                                          O: conv2d_11_output               (1,32,32,8) (13)    
---------------------------------------------------------------------------------------------------------------------------------
13     eltwise_12              12   eltwise_integer    8192      0        I: conv2d_8_output                (1,32,32,8) (9)     
                                                                          I: conv2d_11_output               (1,32,32,8) (13)    
                                                                          O: eltwise_12_output              (1,32,32,8) (14)    
---------------------------------------------------------------------------------------------------------------------------------
14     conv2d_13               13   conv2d             393264    576      I: eltwise_12_output              (1,32,32,8) (14)    
                                                                          S: conv2d_13_scratch0                                 
                                                                          S: conv2d_13_scratch1                                 
                                                                          W: conv2d_13_weights              (8,48,1,1) (104)    
                                                                          W: conv2d_13_bias                 (1,1,1,48) (105)    
                                                                          O: conv2d_13_output               (1,32,32,48) (15)   
---------------------------------------------------------------------------------------------------------------------------------
15     pad_14                  14   pad                0         0        I: conv2d_13_output               (1,32,32,48) (15)   
                                                                          O: pad_14_output                  (1,33,33,48) (16)   
---------------------------------------------------------------------------------------------------------------------------------
16     conv2d_15               15   conv2d             110640    624      I: pad_14_output                  (1,33,33,48) (16)   
                                                                          S: conv2d_15_scratch0                                 
                                                                          S: conv2d_15_scratch1                                 
                                                                          W: conv2d_15_weights              (48,1,3,3) (106)    
                                                                          W: conv2d_15_bias                 (1,1,1,48) (107)    
                                                                          O: conv2d_15_output               (1,16,16,48) (17)   
---------------------------------------------------------------------------------------------------------------------------------
17     conv2d_16               16   conv2d             196624    832      I: conv2d_15_output               (1,16,16,48) (17)   
                                                                          S: conv2d_16_scratch0                                 
                                                                          W: conv2d_16_weights              (48,16,1,1) (108)   
                                                                          W: conv2d_16_bias                 (1,1,1,16) (109)    
                                                                          O: conv2d_16_output               (1,16,16,16) (18)   
---------------------------------------------------------------------------------------------------------------------------------
18     conv2d_17               17   conv2d             393312    1920     I: conv2d_16_output               (1,16,16,16) (18)   
                                                                          S: conv2d_17_scratch0                                 
                                                                          S: conv2d_17_scratch1                                 
                                                                          W: conv2d_17_weights              (16,96,1,1) (110)   
                                                                          W: conv2d_17_bias                 (1,1,1,96) (111)    
                                                                          O: conv2d_17_output               (1,16,16,96) (19)   
---------------------------------------------------------------------------------------------------------------------------------
19     conv2d_18_pad_before    18   pad                0         0        I: conv2d_17_output               (1,16,16,96) (19)   
                                                                          O: conv2d_18_pad_before_output    (1,18,18,96) (20)   
---------------------------------------------------------------------------------------------------------------------------------
20     conv2d_18               18   conv2d             221280    1248     I: conv2d_18_pad_before_output    (1,18,18,96) (20)   
                                                                          S: conv2d_18_scratch0                                 
                                                                          S: conv2d_18_scratch1                                 
                                                                          W: conv2d_18_weights              (96,1,3,3) (112)    
                                                                          W: conv2d_18_bias                 (1,1,1,96) (113)    
                                                                          O: conv2d_18_output               (1,16,16,96) (21)   
---------------------------------------------------------------------------------------------------------------------------------
21     conv2d_19               19   conv2d             393232    1600     I: conv2d_18_output               (1,16,16,96) (21)   
                                                                          S: conv2d_19_scratch0                                 
                                                                          W: conv2d_19_weights              (96,16,1,1) (114)   
                                                                          W: conv2d_19_bias                 (1,1,1,16) (115)    
                                                                          O: conv2d_19_output               (1,16,16,16) (22)   
---------------------------------------------------------------------------------------------------------------------------------
22     eltwise_20              20   eltwise_integer    4096      0        I: conv2d_16_output               (1,16,16,16) (18)   
                                                                          I: conv2d_19_output               (1,16,16,16) (22)   
                                                                          O: eltwise_20_output              (1,16,16,16) (23)   
---------------------------------------------------------------------------------------------------------------------------------
23     conv2d_21               21   conv2d             393312    1920     I: eltwise_20_output              (1,16,16,16) (23)   
                                                                          S: conv2d_21_scratch0                                 
                                                                          S: conv2d_21_scratch1                                 
                                                                          W: conv2d_21_weights              (16,96,1,1) (116)   
                                                                          W: conv2d_21_bias                 (1,1,1,96) (117)    
                                                                          O: conv2d_21_output               (1,16,16,96) (24)   
---------------------------------------------------------------------------------------------------------------------------------
24     conv2d_22_pad_before    22   pad                0         0        I: conv2d_21_output               (1,16,16,96) (24)   
                                                                          O: conv2d_22_pad_before_output    (1,18,18,96) (25)   
---------------------------------------------------------------------------------------------------------------------------------
25     conv2d_22               22   conv2d             221280    1248     I: conv2d_22_pad_before_output    (1,18,18,96) (25)   
                                                                          S: conv2d_22_scratch0                                 
                                                                          S: conv2d_22_scratch1                                 
                                                                          W: conv2d_22_weights              (96,1,3,3) (118)    
                                                                          W: conv2d_22_bias                 (1,1,1,96) (119)    
                                                                          O: conv2d_22_output               (1,16,16,96) (26)   
---------------------------------------------------------------------------------------------------------------------------------
26     conv2d_23               23   conv2d             393232    1600     I: conv2d_22_output               (1,16,16,96) (26)   
                                                                          S: conv2d_23_scratch0                                 
                                                                          W: conv2d_23_weights              (96,16,1,1) (120)   
                                                                          W: conv2d_23_bias                 (1,1,1,16) (121)    
                                                                          O: conv2d_23_output               (1,16,16,16) (27)   
---------------------------------------------------------------------------------------------------------------------------------
27     eltwise_24              24   eltwise_integer    4096      0        I: eltwise_20_output              (1,16,16,16) (23)   
                                                                          I: conv2d_23_output               (1,16,16,16) (27)   
                                                                          O: eltwise_24_output              (1,16,16,16) (28)   
---------------------------------------------------------------------------------------------------------------------------------
28     conv2d_25               25   conv2d             393312    1920     I: eltwise_24_output              (1,16,16,16) (28)   
                                                                          S: conv2d_25_scratch0                                 
                                                                          S: conv2d_25_scratch1                                 
                                                                          W: conv2d_25_weights              (16,96,1,1) (122)   
                                                                          W: conv2d_25_bias                 (1,1,1,96) (123)    
                                                                          O: conv2d_25_output               (1,16,16,96) (29)   
---------------------------------------------------------------------------------------------------------------------------------
29     pad_26                  26   pad                0         0        I: conv2d_25_output               (1,16,16,96) (29)   
                                                                          O: pad_26_output                  (1,17,17,96) (30)   
---------------------------------------------------------------------------------------------------------------------------------
30     conv2d_27               27   conv2d             55392     1248     I: pad_26_output                  (1,17,17,96) (30)   
                                                                          S: conv2d_27_scratch0                                 
                                                                          S: conv2d_27_scratch1                                 
                                                                          W: conv2d_27_weights              (96,1,3,3) (124)    
                                                                          W: conv2d_27_bias                 (1,1,1,96) (125)    
                                                                          O: conv2d_27_output               (1,8,8,96) (31)     
---------------------------------------------------------------------------------------------------------------------------------
31     conv2d_28               28   conv2d             147480    2400     I: conv2d_27_output               (1,8,8,96) (31)     
                                                                          S: conv2d_28_scratch0                                 
                                                                          W: conv2d_28_weights              (96,24,1,1) (126)   
                                                                          W: conv2d_28_bias                 (1,1,1,24) (127)    
                                                                          O: conv2d_28_output               (1,8,8,24) (32)     
---------------------------------------------------------------------------------------------------------------------------------
32     conv2d_29               29   conv2d             221328    4032     I: conv2d_28_output               (1,8,8,24) (32)     
                                                                          S: conv2d_29_scratch0                                 
                                                                          S: conv2d_29_scratch1                                 
                                                                          W: conv2d_29_weights              (24,144,1,1) (128)  
                                                                          W: conv2d_29_bias                 (1,1,1,144) (129)   
                                                                          O: conv2d_29_output               (1,8,8,144) (33)    
---------------------------------------------------------------------------------------------------------------------------------
33     conv2d_30_pad_before    30   pad                0         0        I: conv2d_29_output               (1,8,8,144) (33)    
                                                                          O: conv2d_30_pad_before_output    (1,10,10,144) (34)  
---------------------------------------------------------------------------------------------------------------------------------
34     conv2d_30               30   conv2d             83088     1872     I: conv2d_30_pad_before_output    (1,10,10,144) (34)  
                                                                          S: conv2d_30_scratch0                                 
                                                                          S: conv2d_30_scratch1                                 
                                                                          W: conv2d_30_weights              (144,1,3,3) (130)   
                                                                          W: conv2d_30_bias                 (1,1,1,144) (131)   
                                                                          O: conv2d_30_output               (1,8,8,144) (35)    
---------------------------------------------------------------------------------------------------------------------------------
35     conv2d_31               31   conv2d             221208    3552     I: conv2d_30_output               (1,8,8,144) (35)    
                                                                          S: conv2d_31_scratch0                                 
                                                                          W: conv2d_31_weights              (144,24,1,1) (132)  
                                                                          W: conv2d_31_bias                 (1,1,1,24) (133)    
                                                                          O: conv2d_31_output               (1,8,8,24) (36)     
---------------------------------------------------------------------------------------------------------------------------------
36     eltwise_32              32   eltwise_integer    1536      0        I: conv2d_28_output               (1,8,8,24) (32)     
                                                                          I: conv2d_31_output               (1,8,8,24) (36)     
                                                                          O: eltwise_32_output              (1,8,8,24) (37)     
---------------------------------------------------------------------------------------------------------------------------------
37     conv2d_33               33   conv2d             221328    4032     I: eltwise_32_output              (1,8,8,24) (37)     
                                                                          S: conv2d_33_scratch0                                 
                                                                          S: conv2d_33_scratch1                                 
                                                                          W: conv2d_33_weights              (24,144,1,1) (134)  
                                                                          W: conv2d_33_bias                 (1,1,1,144) (135)   
                                                                          O: conv2d_33_output               (1,8,8,144) (38)    
---------------------------------------------------------------------------------------------------------------------------------
38     conv2d_34_pad_before    34   pad                0         0        I: conv2d_33_output               (1,8,8,144) (38)    
                                                                          O: conv2d_34_pad_before_output    (1,10,10,144) (39)  
---------------------------------------------------------------------------------------------------------------------------------
39     conv2d_34               34   conv2d             83088     1872     I: conv2d_34_pad_before_output    (1,10,10,144) (39)  
                                                                          S: conv2d_34_scratch0                                 
                                                                          S: conv2d_34_scratch1                                 
                                                                          W: conv2d_34_weights              (144,1,3,3) (136)   
                                                                          W: conv2d_34_bias                 (1,1,1,144) (137)   
                                                                          O: conv2d_34_output               (1,8,8,144) (40)    
---------------------------------------------------------------------------------------------------------------------------------
40     conv2d_35               35   conv2d             221208    3552     I: conv2d_34_output               (1,8,8,144) (40)    
                                                                          S: conv2d_35_scratch0                                 
                                                                          W: conv2d_35_weights              (144,24,1,1) (138)  
                                                                          W: conv2d_35_bias                 (1,1,1,24) (139)    
                                                                          O: conv2d_35_output               (1,8,8,24) (41)     
---------------------------------------------------------------------------------------------------------------------------------
41     eltwise_36              36   eltwise_integer    1536      0        I: eltwise_32_output              (1,8,8,24) (37)     
                                                                          I: conv2d_35_output               (1,8,8,24) (41)     
                                                                          O: eltwise_36_output              (1,8,8,24) (42)     
---------------------------------------------------------------------------------------------------------------------------------
42     conv2d_37               37   conv2d             221328    4032     I: eltwise_36_output              (1,8,8,24) (42)     
                                                                          S: conv2d_37_scratch0                                 
                                                                          S: conv2d_37_scratch1                                 
                                                                          W: conv2d_37_weights              (24,144,1,1) (140)  
                                                                          W: conv2d_37_bias                 (1,1,1,144) (141)   
                                                                          O: conv2d_37_output               (1,8,8,144) (43)    
---------------------------------------------------------------------------------------------------------------------------------
43     conv2d_38_pad_before    38   pad                0         0        I: conv2d_37_output               (1,8,8,144) (43)    
                                                                          O: conv2d_38_pad_before_output    (1,10,10,144) (44)  
---------------------------------------------------------------------------------------------------------------------------------
44     conv2d_38               38   conv2d             83088     1872     I: conv2d_38_pad_before_output    (1,10,10,144) (44)  
                                                                          S: conv2d_38_scratch0                                 
                                                                          S: conv2d_38_scratch1                                 
                                                                          W: conv2d_38_weights              (144,1,3,3) (142)   
                                                                          W: conv2d_38_bias                 (1,1,1,144) (143)   
                                                                          O: conv2d_38_output               (1,8,8,144) (45)    
---------------------------------------------------------------------------------------------------------------------------------
45     conv2d_39               39   conv2d             221208    3552     I: conv2d_38_output               (1,8,8,144) (45)    
                                                                          S: conv2d_39_scratch0                                 
                                                                          W: conv2d_39_weights              (144,24,1,1) (144)  
                                                                          W: conv2d_39_bias                 (1,1,1,24) (145)    
                                                                          O: conv2d_39_output               (1,8,8,24) (46)     
---------------------------------------------------------------------------------------------------------------------------------
46     eltwise_40              40   eltwise_integer    1536      0        I: eltwise_36_output              (1,8,8,24) (42)     
                                                                          I: conv2d_39_output               (1,8,8,24) (46)     
                                                                          O: eltwise_40_output              (1,8,8,24) (47)     
---------------------------------------------------------------------------------------------------------------------------------
47     conv2d_41               41   conv2d             221328    4032     I: eltwise_40_output              (1,8,8,24) (47)     
                                                                          S: conv2d_41_scratch0                                 
                                                                          S: conv2d_41_scratch1                                 
                                                                          W: conv2d_41_weights              (24,144,1,1) (146)  
                                                                          W: conv2d_41_bias                 (1,1,1,144) (147)   
                                                                          O: conv2d_41_output               (1,8,8,144) (48)    
---------------------------------------------------------------------------------------------------------------------------------
48     conv2d_42_pad_before    42   pad                0         0        I: conv2d_41_output               (1,8,8,144) (48)    
                                                                          O: conv2d_42_pad_before_output    (1,10,10,144) (49)  
---------------------------------------------------------------------------------------------------------------------------------
49     conv2d_42               42   conv2d             83088     1872     I: conv2d_42_pad_before_output    (1,10,10,144) (49)  
                                                                          S: conv2d_42_scratch0                                 
                                                                          S: conv2d_42_scratch1                                 
                                                                          W: conv2d_42_weights              (144,1,3,3) (148)   
                                                                          W: conv2d_42_bias                 (1,1,1,144) (149)   
                                                                          O: conv2d_42_output               (1,8,8,144) (50)    
---------------------------------------------------------------------------------------------------------------------------------
50     conv2d_43               43   conv2d             294944    4736     I: conv2d_42_output               (1,8,8,144) (50)    
                                                                          S: conv2d_43_scratch0                                 
                                                                          W: conv2d_43_weights              (144,32,1,1) (150)  
                                                                          W: conv2d_43_bias                 (1,1,1,32) (151)    
                                                                          O: conv2d_43_output               (1,8,8,32) (51)     
---------------------------------------------------------------------------------------------------------------------------------
51     conv2d_44               44   conv2d             393408    6912     I: conv2d_43_output               (1,8,8,32) (51)     
                                                                          S: conv2d_44_scratch0                                 
                                                                          S: conv2d_44_scratch1                                 
                                                                          W: conv2d_44_weights              (32,192,1,1) (152)  
                                                                          W: conv2d_44_bias                 (1,1,1,192) (153)   
                                                                          O: conv2d_44_output               (1,8,8,192) (52)    
---------------------------------------------------------------------------------------------------------------------------------
52     conv2d_45_pad_before    45   pad                0         0        I: conv2d_44_output               (1,8,8,192) (52)    
                                                                          O: conv2d_45_pad_before_output    (1,10,10,192) (53)  
---------------------------------------------------------------------------------------------------------------------------------
53     conv2d_45               45   conv2d             110784    2496     I: conv2d_45_pad_before_output    (1,10,10,192) (53)  
                                                                          S: conv2d_45_scratch0                                 
                                                                          S: conv2d_45_scratch1                                 
                                                                          W: conv2d_45_weights              (192,1,3,3) (154)   
                                                                          W: conv2d_45_bias                 (1,1,1,192) (155)   
                                                                          O: conv2d_45_output               (1,8,8,192) (54)    
---------------------------------------------------------------------------------------------------------------------------------
54     conv2d_46               46   conv2d             393248    6272     I: conv2d_45_output               (1,8,8,192) (54)    
                                                                          S: conv2d_46_scratch0                                 
                                                                          W: conv2d_46_weights              (192,32,1,1) (156)  
                                                                          W: conv2d_46_bias                 (1,1,1,32) (157)    
                                                                          O: conv2d_46_output               (1,8,8,32) (55)     
---------------------------------------------------------------------------------------------------------------------------------
55     eltwise_47              47   eltwise_integer    2048      0        I: conv2d_43_output               (1,8,8,32) (51)     
                                                                          I: conv2d_46_output               (1,8,8,32) (55)     
                                                                          O: eltwise_47_output              (1,8,8,32) (56)     
---------------------------------------------------------------------------------------------------------------------------------
56     conv2d_48               48   conv2d             393408    6912     I: eltwise_47_output              (1,8,8,32) (56)     
                                                                          S: conv2d_48_scratch0                                 
                                                                          S: conv2d_48_scratch1                                 
                                                                          W: conv2d_48_weights              (32,192,1,1) (158)  
                                                                          W: conv2d_48_bias                 (1,1,1,192) (159)   
                                                                          O: conv2d_48_output               (1,8,8,192) (57)    
---------------------------------------------------------------------------------------------------------------------------------
57     conv2d_49_pad_before    49   pad                0         0        I: conv2d_48_output               (1,8,8,192) (57)    
                                                                          O: conv2d_49_pad_before_output    (1,10,10,192) (58)  
---------------------------------------------------------------------------------------------------------------------------------
58     conv2d_49               49   conv2d             110784    2496     I: conv2d_49_pad_before_output    (1,10,10,192) (58)  
                                                                          S: conv2d_49_scratch0                                 
                                                                          S: conv2d_49_scratch1                                 
                                                                          W: conv2d_49_weights              (192,1,3,3) (160)   
                                                                          W: conv2d_49_bias                 (1,1,1,192) (161)   
                                                                          O: conv2d_49_output               (1,8,8,192) (59)    
---------------------------------------------------------------------------------------------------------------------------------
59     conv2d_50               50   conv2d             393248    6272     I: conv2d_49_output               (1,8,8,192) (59)    
                                                                          S: conv2d_50_scratch0                                 
                                                                          W: conv2d_50_weights              (192,32,1,1) (162)  
                                                                          W: conv2d_50_bias                 (1,1,1,32) (163)    
                                                                          O: conv2d_50_output               (1,8,8,32) (60)     
---------------------------------------------------------------------------------------------------------------------------------
60     eltwise_51              51   eltwise_integer    2048      0        I: eltwise_47_output              (1,8,8,32) (56)     
                                                                          I: conv2d_50_output               (1,8,8,32) (60)     
                                                                          O: eltwise_51_output              (1,8,8,32) (61)     
---------------------------------------------------------------------------------------------------------------------------------
61     conv2d_52               52   conv2d             393408    6912     I: eltwise_51_output              (1,8,8,32) (61)     
                                                                          S: conv2d_52_scratch0                                 
                                                                          S: conv2d_52_scratch1                                 
                                                                          W: conv2d_52_weights              (32,192,1,1) (164)  
                                                                          W: conv2d_52_bias                 (1,1,1,192) (165)   
                                                                          O: conv2d_52_output               (1,8,8,192) (62)    
---------------------------------------------------------------------------------------------------------------------------------
62     pad_53                  53   pad                0         0        I: conv2d_52_output               (1,8,8,192) (62)    
                                                                          O: pad_53_output                  (1,9,9,192) (63)    
---------------------------------------------------------------------------------------------------------------------------------
63     conv2d_54               54   conv2d             27840     2496     I: pad_53_output                  (1,9,9,192) (63)    
                                                                          S: conv2d_54_scratch0                                 
                                                                          S: conv2d_54_scratch1                                 
                                                                          W: conv2d_54_weights              (192,1,3,3) (166)   
                                                                          W: conv2d_54_bias                 (1,1,1,192) (167)   
                                                                          O: conv2d_54_output               (1,4,4,192) (64)    
---------------------------------------------------------------------------------------------------------------------------------
64     conv2d_55               55   conv2d             172088    10976    I: conv2d_54_output               (1,4,4,192) (64)    
                                                                          S: conv2d_55_scratch0                                 
                                                                          W: conv2d_55_weights              (192,56,1,1) (168)  
                                                                          W: conv2d_55_bias                 (1,1,1,56) (169)    
                                                                          O: conv2d_55_output               (1,4,4,56) (65)     
---------------------------------------------------------------------------------------------------------------------------------
65     conv2d_56               56   conv2d             301392    20160    I: conv2d_55_output               (1,4,4,56) (65)     
                                                                          S: conv2d_56_scratch0                                 
                                                                          S: conv2d_56_scratch1                                 
                                                                          W: conv2d_56_weights              (56,336,1,1) (170)  
                                                                          W: conv2d_56_bias                 (1,1,1,336) (171)   
                                                                          O: conv2d_56_output               (1,4,4,336) (66)    
---------------------------------------------------------------------------------------------------------------------------------
66     conv2d_57_pad_before    57   pad                0         0        I: conv2d_56_output               (1,4,4,336) (66)    
                                                                          O: conv2d_57_pad_before_output    (1,6,6,336) (67)    
---------------------------------------------------------------------------------------------------------------------------------
67     conv2d_57               57   conv2d             48720     4368     I: conv2d_57_pad_before_output    (1,6,6,336) (67)    
                                                                          S: conv2d_57_scratch0                                 
                                                                          S: conv2d_57_scratch1                                 
                                                                          W: conv2d_57_weights              (336,1,3,3) (172)   
                                                                          W: conv2d_57_bias                 (1,1,1,336) (173)   
                                                                          O: conv2d_57_output               (1,4,4,336) (68)    
---------------------------------------------------------------------------------------------------------------------------------
68     conv2d_58               58   conv2d             301112    19040    I: conv2d_57_output               (1,4,4,336) (68)    
                                                                          S: conv2d_58_scratch0                                 
                                                                          W: conv2d_58_weights              (336,56,1,1) (174)  
                                                                          W: conv2d_58_bias                 (1,1,1,56) (175)    
                                                                          O: conv2d_58_output               (1,4,4,56) (69)     
---------------------------------------------------------------------------------------------------------------------------------
69     eltwise_59              59   eltwise_integer    896       0        I: conv2d_55_output               (1,4,4,56) (65)     
                                                                          I: conv2d_58_output               (1,4,4,56) (69)     
                                                                          O: eltwise_59_output              (1,4,4,56) (70)     
---------------------------------------------------------------------------------------------------------------------------------
70     conv2d_60               60   conv2d             301392    20160    I: eltwise_59_output              (1,4,4,56) (70)     
                                                                          S: conv2d_60_scratch0                                 
                                                                          S: conv2d_60_scratch1                                 
                                                                          W: conv2d_60_weights              (56,336,1,1) (176)  
                                                                          W: conv2d_60_bias                 (1,1,1,336) (177)   
                                                                          O: conv2d_60_output               (1,4,4,336) (71)    
---------------------------------------------------------------------------------------------------------------------------------
71     conv2d_61_pad_before    61   pad                0         0        I: conv2d_60_output               (1,4,4,336) (71)    
                                                                          O: conv2d_61_pad_before_output    (1,6,6,336) (72)    
---------------------------------------------------------------------------------------------------------------------------------
72     conv2d_61               61   conv2d             48720     4368     I: conv2d_61_pad_before_output    (1,6,6,336) (72)    
                                                                          S: conv2d_61_scratch0                                 
                                                                          S: conv2d_61_scratch1                                 
                                                                          W: conv2d_61_weights              (336,1,3,3) (178)   
                                                                          W: conv2d_61_bias                 (1,1,1,336) (179)   
                                                                          O: conv2d_61_output               (1,4,4,336) (73)    
---------------------------------------------------------------------------------------------------------------------------------
73     conv2d_62               62   conv2d             301112    19040    I: conv2d_61_output               (1,4,4,336) (73)    
                                                                          S: conv2d_62_scratch0                                 
                                                                          W: conv2d_62_weights              (336,56,1,1) (180)  
                                                                          W: conv2d_62_bias                 (1,1,1,56) (181)    
                                                                          O: conv2d_62_output               (1,4,4,56) (74)     
---------------------------------------------------------------------------------------------------------------------------------
74     eltwise_63              63   eltwise_integer    896       0        I: eltwise_59_output              (1,4,4,56) (70)     
                                                                          I: conv2d_62_output               (1,4,4,56) (74)     
                                                                          O: eltwise_63_output              (1,4,4,56) (75)     
---------------------------------------------------------------------------------------------------------------------------------
75     conv2d_64               64   conv2d             301392    20160    I: eltwise_63_output              (1,4,4,56) (75)     
                                                                          S: conv2d_64_scratch0                                 
                                                                          S: conv2d_64_scratch1                                 
                                                                          W: conv2d_64_weights              (56,336,1,1) (182)  
                                                                          W: conv2d_64_bias                 (1,1,1,336) (183)   
                                                                          O: conv2d_64_output               (1,4,4,336) (76)    
---------------------------------------------------------------------------------------------------------------------------------
76     conv2d_65_pad_before    65   pad                0         0        I: conv2d_64_output               (1,4,4,336) (76)    
                                                                          O: conv2d_65_pad_before_output    (1,6,6,336) (77)    
---------------------------------------------------------------------------------------------------------------------------------
77     conv2d_65               65   conv2d             48720     4368     I: conv2d_65_pad_before_output    (1,6,6,336) (77)    
                                                                          S: conv2d_65_scratch0                                 
                                                                          S: conv2d_65_scratch1                                 
                                                                          W: conv2d_65_weights              (336,1,3,3) (184)   
                                                                          W: conv2d_65_bias                 (1,1,1,336) (185)   
                                                                          O: conv2d_65_output               (1,4,4,336) (78)    
---------------------------------------------------------------------------------------------------------------------------------
78     conv2d_66               66   conv2d             602224    38080    I: conv2d_65_output               (1,4,4,336) (78)    
                                                                          S: conv2d_66_scratch0                                 
                                                                          W: conv2d_66_weights              (336,112,1,1) (186) 
                                                                          W: conv2d_66_bias                 (1,1,1,112) (187)   
                                                                          O: conv2d_66_output               (1,4,4,112) (79)    
---------------------------------------------------------------------------------------------------------------------------------
79     conv2d_67               67   conv2d             2295040   148480   I: conv2d_66_output               (1,4,4,112) (79)    
                                                                          S: conv2d_67_scratch0                                 
                                                                          S: conv2d_67_scratch1                                 
                                                                          W: conv2d_67_weights              (112,1280,1,1) (188)
                                                                          W: conv2d_67_bias                 (1,1,1,1280) (189)  
                                                                          O: conv2d_67_output               (1,4,4,1280) (80)   
---------------------------------------------------------------------------------------------------------------------------------
80     pool_68                 68   pool               20480     0        I: conv2d_67_output               (1,4,4,1280) (80)   
                                                                          O: pool_68_output                 (1,1,1,1280) (81)   
---------------------------------------------------------------------------------------------------------------------------------
81     dense_69                69   dense              2562      2568     I: pool_68_output                 (1,1,1,1280) (81)   
                                                                          S: dense_69_scratch0                                  
                                                                          W: dense_69_weights               (1280,1,1,2) (190)  
                                                                          W: dense_69_bias                  (1,1,1,2) (191)     
                                                                          O: dense_69_output                (1,1,1,2) (82)      
---------------------------------------------------------------------------------------------------------------------------------
82     dense_69_0_conversion   69   conv               4         0        I: dense_69_output                (1,1,1,2) (82)      
                                                                          O: dense_69_0_conversion_output   (1,1,1,2) (83)      
---------------------------------------------------------------------------------------------------------------------------------
83     nl_70                   70   nl                 30        0        I: dense_69_0_conversion_output   (1,1,1,2) (83)      
                                                                          O: nl_70_output                   (1,1,1,2) (84)      
---------------------------------------------------------------------------------------------------------------------------------
84     nl_70_0_conversion      70   conv               4         0        I: nl_70_output                   (1,1,1,2) (84)      
                                                                          O: nl_70_0_conversion_output      (1,1,1,2) (85)      
---------------------------------------------------------------------------------------------------------------------------------



Number of operations per c-layer
------------------------------------------------------------------------------------------------------
c_id    m_id   name (type)                    #op (type)                      #param (sparsity)      
------------------------------------------------------------------------------------------------------
0       0      conversion_0 (conv)                     98,304 (conv_u8_s8)                           
1       2      conv2d_2 (conv2d)                    1,769,488 (smul_s8_s8)               448 (0.4911)
2       3      conv2d_3_pad_before (pad)                    0 (smul_s8_s8)                           
3       3      conv2d_3 (conv2d)                      589,840 (smul_s8_s8)               160 (0.0375)
4       4      conv2d_4 (conv2d)                      524,296 (smul_s8_s8)               136 (0.4853)
5       5      conv2d_5 (conv2d)                    1,572,912 (smul_s8_s8)               432 (0.1065)
6       6      pad_6 (pad)                                  0 (smul_s8_s8)                           
7       7      conv2d_7 (conv2d)                      442,416 (smul_s8_s8)               480 (0.0021)
8       8      conv2d_8 (conv2d)                      393,224 (smul_s8_s8)               392 (0.0893)
9       9      conv2d_9 (conv2d)                      393,264 (smul_s8_s8)               432 (0.0440)
10      10     conv2d_10_pad_before (pad)                   0 (smul_s8_s8)                           
11      10     conv2d_10 (conv2d)                     442,416 (smul_s8_s8)               480 (0.0312)
12      11     conv2d_11 (conv2d)                     393,224 (smul_s8_s8)               392 (0.0536)
13      12     eltwise_12 (eltwise_integer)             8,192 (smul_s8_s8)                           
14      13     conv2d_13 (conv2d)                     393,264 (smul_s8_s8)               432 (0.0046)
15      14     pad_14 (pad)                                 0 (smul_s8_s8)                           
16      15     conv2d_15 (conv2d)                     110,640 (smul_s8_s8)               480 (0.0000)
17      16     conv2d_16 (conv2d)                     196,624 (smul_s8_s8)               784 (0.0204)
18      17     conv2d_17 (conv2d)                     393,312 (smul_s8_s8)             1,632 (0.0110)
19      18     conv2d_18_pad_before (pad)                   0 (smul_s8_s8)                           
20      18     conv2d_18 (conv2d)                     221,280 (smul_s8_s8)               960 (0.0135)
21      19     conv2d_19 (conv2d)                     393,232 (smul_s8_s8)             1,552 (0.0148)
22      20     eltwise_20 (eltwise_integer)             4,096 (smul_s8_s8)                           
23      21     conv2d_21 (conv2d)                     393,312 (smul_s8_s8)             1,632 (0.0086)
24      22     conv2d_22_pad_before (pad)                   0 (smul_s8_s8)                           
25      22     conv2d_22 (conv2d)                     221,280 (smul_s8_s8)               960 (0.0052)
26      23     conv2d_23 (conv2d)                     393,232 (smul_s8_s8)             1,552 (0.0090)
27      24     eltwise_24 (eltwise_integer)             4,096 (smul_s8_s8)                           
28      25     conv2d_25 (conv2d)                     393,312 (smul_s8_s8)             1,632 (0.0098)
29      26     pad_26 (pad)                                 0 (smul_s8_s8)                           
30      27     conv2d_27 (conv2d)                      55,392 (smul_s8_s8)               960 (0.0010)
31      28     conv2d_28 (conv2d)                     147,480 (smul_s8_s8)             2,328 (0.0112)
32      29     conv2d_29 (conv2d)                     221,328 (smul_s8_s8)             3,600 (0.0083)
33      30     conv2d_30_pad_before (pad)                   0 (smul_s8_s8)                           
34      30     conv2d_30 (conv2d)                      83,088 (smul_s8_s8)             1,440 (0.0097)
35      31     conv2d_31 (conv2d)                     221,208 (smul_s8_s8)             3,480 (0.0103)
36      32     eltwise_32 (eltwise_integer)             1,536 (smul_s8_s8)                           
37      33     conv2d_33 (conv2d)                     221,328 (smul_s8_s8)             3,600 (0.0067)
38      34     conv2d_34_pad_before (pad)                   0 (smul_s8_s8)                           
39      34     conv2d_34 (conv2d)                      83,088 (smul_s8_s8)             1,440 (0.0090)
40      35     conv2d_35 (conv2d)                     221,208 (smul_s8_s8)             3,480 (0.0161)
41      36     eltwise_36 (eltwise_integer)             1,536 (smul_s8_s8)                           
42      37     conv2d_37 (conv2d)                     221,328 (smul_s8_s8)             3,600 (0.0078)
43      38     conv2d_38_pad_before (pad)                   0 (smul_s8_s8)                           
44      38     conv2d_38 (conv2d)                      83,088 (smul_s8_s8)             1,440 (0.0069)
45      39     conv2d_39 (conv2d)                     221,208 (smul_s8_s8)             3,480 (0.0118)
46      40     eltwise_40 (eltwise_integer)             1,536 (smul_s8_s8)                           
47      41     conv2d_41 (conv2d)                     221,328 (smul_s8_s8)             3,600 (0.0064)
48      42     conv2d_42_pad_before (pad)                   0 (smul_s8_s8)                           
49      42     conv2d_42 (conv2d)                      83,088 (smul_s8_s8)             1,440 (0.0181)
50      43     conv2d_43 (conv2d)                     294,944 (smul_s8_s8)             4,640 (0.0170)
51      44     conv2d_44 (conv2d)                     393,408 (smul_s8_s8)             6,336 (0.0099)
52      45     conv2d_45_pad_before (pad)                   0 (smul_s8_s8)                           
53      45     conv2d_45 (conv2d)                     110,784 (smul_s8_s8)             1,920 (0.0068)
54      46     conv2d_46 (conv2d)                     393,248 (smul_s8_s8)             6,176 (0.0134)
55      47     eltwise_47 (eltwise_integer)             2,048 (smul_s8_s8)                           
56      48     conv2d_48 (conv2d)                     393,408 (smul_s8_s8)             6,336 (0.0080)
57      49     conv2d_49_pad_before (pad)                   0 (smul_s8_s8)                           
58      49     conv2d_49 (conv2d)                     110,784 (smul_s8_s8)             1,920 (0.0062)
59      50     conv2d_50 (conv2d)                     393,248 (smul_s8_s8)             6,176 (0.0108)
60      51     eltwise_51 (eltwise_integer)             2,048 (smul_s8_s8)                           
61      52     conv2d_52 (conv2d)                     393,408 (smul_s8_s8)             6,336 (0.0090)
62      53     pad_53 (pad)                                 0 (smul_s8_s8)                           
63      54     conv2d_54 (conv2d)                      27,840 (smul_s8_s8)             1,920 (0.0005)
64      55     conv2d_55 (conv2d)                     172,088 (smul_s8_s8)            10,808 (0.0125)
65      56     conv2d_56 (conv2d)                     301,392 (smul_s8_s8)            19,152 (0.0089)
66      57     conv2d_57_pad_before (pad)                   0 (smul_s8_s8)                           
67      57     conv2d_57 (conv2d)                      48,720 (smul_s8_s8)             3,360 (0.0092)
68      58     conv2d_58 (conv2d)                     301,112 (smul_s8_s8)            18,872 (0.0113)
69      59     eltwise_59 (eltwise_integer)               896 (smul_s8_s8)                           
70      60     conv2d_60 (conv2d)                     301,392 (smul_s8_s8)            19,152 (0.0107)
71      61     conv2d_61_pad_before (pad)                   0 (smul_s8_s8)                           
72      61     conv2d_61 (conv2d)                      48,720 (smul_s8_s8)             3,360 (0.0039)
73      62     conv2d_62 (conv2d)                     301,112 (smul_s8_s8)            18,872 (0.0117)
74      63     eltwise_63 (eltwise_integer)               896 (smul_s8_s8)                           
75      64     conv2d_64 (conv2d)                     301,392 (smul_s8_s8)            19,152 (0.0089)
76      65     conv2d_65_pad_before (pad)                   0 (smul_s8_s8)                           
77      65     conv2d_65 (conv2d)                      48,720 (smul_s8_s8)             3,360 (0.0021)
78      66     conv2d_66 (conv2d)                     602,224 (smul_s8_s8)            37,744 (0.0121)
79      67     conv2d_67 (conv2d)                   2,295,040 (smul_s8_s8)           144,640 (0.0094)
80      68     pool_68 (pool)                          20,480 (op_s8_s8)                             
81      69     dense_69 (dense)                         2,562 (smul_s8_s8)             2,562 (0.0074)
82      69     dense_69_0_conversion (conv)                 4 (conv_s8_f32)                          
83      70     nl_70 (nl)                                  30 (op_f32_f32)                           
84      70     nl_70_0_conversion (conv)                    4 (conv_f32_u8)                          
------------------------------------------------------------------------------------------------------
total                                              19,095,976                        391,650 (0.0110)

  Number of operation types
  ---------------------------------------------
  conv_u8_s8                98,304        0.5%
  smul_s8_s8            18,977,154       99.4%
  op_s8_s8                  20,480        0.1%
  conv_s8_f32                    4        0.0%
  op_f32_f32                    30        0.0%
  conv_f32_u8                    4        0.0%

Complexity report (model)
---------------------------------------------------------------------------------
m_id   name         c_macc                    c_rom                     c_id    
---------------------------------------------------------------------------------
0      input_1      |                  0.5%   |                  0.0%   [0]     
2      conv2d_2     ||||||||||||       9.3%   |                  0.1%   [1]     
3      conv2d_3     ||||               3.1%   |                  0.1%   [2, 3]  
4      conv2d_4     ||||               2.7%   |                  0.0%   [4]     
5      conv2d_5     |||||||||||        8.2%   |                  0.1%   [5]     
6      pad_6        |                  0.0%   |                  0.0%   [6]     
7      conv2d_7     |||                2.3%   |                  0.2%   [7]     
8      conv2d_8     |||                2.1%   |                  0.1%   [8]     
9      conv2d_9     |||                2.1%   |                  0.1%   [9]     
10     conv2d_10    |||                2.3%   |                  0.2%   [10, 11]
11     conv2d_11    |||                2.1%   |                  0.1%   [12]    
12     eltwise_12   |                  0.0%   |                  0.0%   [13]    
13     conv2d_13    |||                2.1%   |                  0.1%   [14]    
14     pad_14       |                  0.0%   |                  0.0%   [15]    
15     conv2d_15    |                  0.6%   |                  0.2%   [16]    
16     conv2d_16    ||                 1.0%   |                  0.2%   [17]    
17     conv2d_17    |||                2.1%   |                  0.5%   [18]    
18     conv2d_18    ||                 1.2%   |                  0.3%   [19, 20]
19     conv2d_19    |||                2.1%   |                  0.4%   [21]    
20     eltwise_20   |                  0.0%   |                  0.0%   [22]    
21     conv2d_21    |||                2.1%   |                  0.5%   [23]    
22     conv2d_22    ||                 1.2%   |                  0.3%   [24, 25]
23     conv2d_23    |||                2.1%   |                  0.4%   [26]    
24     eltwise_24   |                  0.0%   |                  0.0%   [27]    
25     conv2d_25    |||                2.1%   |                  0.5%   [28]    
26     pad_26       |                  0.0%   |                  0.0%   [29]    
27     conv2d_27    |                  0.3%   |                  0.3%   [30]    
28     conv2d_28    |                  0.8%   |                  0.6%   [31]    
29     conv2d_29    ||                 1.2%   |                  1.0%   [32]    
30     conv2d_30    |                  0.4%   |                  0.5%   [33, 34]
31     conv2d_31    ||                 1.2%   |                  0.9%   [35]    
32     eltwise_32   |                  0.0%   |                  0.0%   [36]    
33     conv2d_33    ||                 1.2%   |                  1.0%   [37]    
34     conv2d_34    |                  0.4%   |                  0.5%   [38, 39]
35     conv2d_35    ||                 1.2%   |                  0.9%   [40]    
36     eltwise_36   |                  0.0%   |                  0.0%   [41]    
37     conv2d_37    ||                 1.2%   |                  1.0%   [42]    
38     conv2d_38    |                  0.4%   |                  0.5%   [43, 44]
39     conv2d_39    ||                 1.2%   |                  0.9%   [45]    
40     eltwise_40   |                  0.0%   |                  0.0%   [46]    
41     conv2d_41    ||                 1.2%   |                  1.0%   [47]    
42     conv2d_42    |                  0.4%   |                  0.5%   [48, 49]
43     conv2d_43    ||                 1.5%   |                  1.1%   [50]    
44     conv2d_44    |||                2.1%   |                  1.7%   [51]    
45     conv2d_45    |                  0.6%   |                  0.6%   [52, 53]
46     conv2d_46    |||                2.1%   |                  1.5%   [54]    
47     eltwise_47   |                  0.0%   |                  0.0%   [55]    
48     conv2d_48    |||                2.1%   |                  1.7%   [56]    
49     conv2d_49    |                  0.6%   |                  0.6%   [57, 58]
50     conv2d_50    |||                2.1%   |                  1.5%   [59]    
51     eltwise_51   |                  0.0%   |                  0.0%   [60]    
52     conv2d_52    |||                2.1%   |                  1.7%   [61]    
53     pad_53       |                  0.0%   |                  0.0%   [62]    
54     conv2d_54    |                  0.1%   |                  0.6%   [63]    
55     conv2d_55    ||                 0.9%   ||                 2.7%   [64]    
56     conv2d_56    ||                 1.6%   |||                4.9%   [65]    
57     conv2d_57    |                  0.3%   |                  1.1%   [66, 67]
58     conv2d_58    ||                 1.6%   ||                 4.6%   [68]    
59     eltwise_59   |                  0.0%   |                  0.0%   [69]    
60     conv2d_60    ||                 1.6%   |||                4.9%   [70]    
61     conv2d_61    |                  0.3%   |                  1.1%   [71, 72]
62     conv2d_62    ||                 1.6%   ||                 4.6%   [73]    
63     eltwise_63   |                  0.0%   |                  0.0%   [74]    
64     conv2d_64    ||                 1.6%   |||                4.9%   [75]    
65     conv2d_65    |                  0.3%   |                  1.1%   [76, 77]
66     conv2d_66    ||||               3.2%   ||||               9.2%   [78]    
67     conv2d_67    ||||||||||||||||  12.0%   ||||||||||||||||  36.0%   [79]    
68     pool_68      |                  0.1%   |                  0.0%   [80]    
69     dense_69     |                  0.0%   |                  0.6%   [81, 82]
70     nl_70        |                  0.0%   |                  0.0%   [83, 84]
---------------------------------------------------------------------------------
macc=19,095,976 weights=412,776 act=229,888 ram_io=0

Generated files (7)
--------------------------------------------------------------------------
C:\Users\10633\.stm32cubemx\network_output\network_config.h
C:\Users\10633\.stm32cubemx\network_output\network.h
C:\Users\10633\.stm32cubemx\network_output\network.c
C:\Users\10633\.stm32cubemx\network_output\network_data_params.h
C:\Users\10633\.stm32cubemx\network_output\network_data_params.c
C:\Users\10633\.stm32cubemx\network_output\network_data.h
C:\Users\10633\.stm32cubemx\network_output\network_data.c
